LeNet/LeNet_para_epoch9.pth (torch, 327943 bytes, 10 tensors)

downsample.0.weight f4 [6, 1, 3, 3]
000000 2b 86 24 c0 9a 92 dd be e1 f8 f6 bf 24 25 1e bf
       -2.570689 -0.4327591 -1.9294702 -0.6177542
000010 68 5c 08 bf 1b a7 4e bf 53 4b 54 3e f5 a5 b0 bd
       -0.53266 -0.8072373 0.20731859 -0.08625404
000020 b8 d7 b9 3e 8c 78 90 be 95 69 5a bf 4d 93 10 be
       0.36297393 -0.2821697 -0.85317355 -0.14118691
000030 d0 bb ec bc d0 b5 bc be 1b b2 64 3e 7f 84 40 3f
       -0.02889815 -0.36857462 0.22333567 0.75202173
000040 f3 f6 03 3f a3 91 09 3d a7 fe e8 3d a7 35 c9 3e
       0.5154869 0.033586156 0.11376696 0.39298746
000050 86 9c d0 be fe 3a bb 3d 3b 9e 37 3f e2 ad 57 3e
       -0.40744418 0.09142111 0.71725816 0.21062425
000060 39 08 be be d1 7a 89 3d bf 4c ea 3e 3e fb 4d 3e
       -0.37115648 0.067128785 0.45761678 0.20115373
000070 81 b8 4d be ad 6d b8 bd 3c 55 c2 be fa bc f5 3c
       -0.20089914 -0.09005294 -0.37955654 0.029997338
000080 68 10 71 bd 1b 0e 46 3e 2c 19 72 be 5c 44 52 3d
       -0.058853537 0.19341318 -0.23642415 0.051334724
000090 57 b0 7b be f7 69 ed 3e 75 79 d8 3e b1 ef 57 3f
       -0.24578987 0.46369907 0.42280164 0.84350115
0000a0 3d 9e ce 3e db ce 7d bf 98 17 96 be c4 32 04 bf
       0.403551 -0.9914376 -0.29314876 -0.5163996
0000b0 1a 04 10 bf a7 05 d1 be 15 a2 ab be 27 d0 9e 3d
       -0.5625626 -0.40824625 -0.33522096 0.07754546
0000c0 ae 41 67 bf ab f3 03 3e 02 25 a0 3e f2 f4 1f bf
       -0.90334594 0.1288592 0.31278235 -0.6248313
0000d0 9e 6c c5 3d 73 18 1b 3f
       0.09639858 0.6058418

downsample.0.bias f4 [6]
000000 f5 4d 62 3e 71 8b 15 be 42 11 31 bf 9c f0 56 be
       0.22100051 -0.14603974 -0.6916696 -0.20990223
000010 6f 58 8c be 7c ff 19 be
       -0.2741122 -0.15038866

downsample.3.weight f4 [16, 6, 3, 3]
000000 4e 43 eb be b8 67 11 3d 84 93 c4 be d3 09 cf bd
       -0.45949787 0.035499305 -0.38393795 -0.10109296
000010 79 50 fa 3d ed 0e 8b bf da dc 15 3f 0b 29 ca bf
       0.1222238 -1.086393 0.5854012 -1.5793775
000020 f7 0e 0f c0 e9 d4 ad bd bd 5b 95 be a7 f7 cd 3e
       -2.2352884 -0.08487875 -0.29171553 0.40228006
000030 44 0c 0e be 74 1b c9 3e 62 dd 3f be d1 cb 04 3f
       -0.13871866 0.39278758 -0.18736795 0.518735
000040 e2 f2 0f 3e 89 d0 83 bf 56 e7 08 bf 63 5b 31 be
       0.14057496 -1.0298015 -0.5347799 -0.17320018
000050 12 e6 02 3e 62 7e fb be 3a 33 41 be d7 3e ba bb
       0.12783077 -0.4911986 -0.18867198 -0.0056837606
000060 ae 8e 3a 3e 72 a6 0e 3f dd e1 8a 3d 64 7b 00 bf
       0.1821849 0.55722725 0.06781361 -0.5018828
000070 b3 06 1f 3e 67 e2 27 3e 4f 97 18 be 42 6e 2a bc
       0.155299 0.1639496 -0.1490147 -0.010402264
000080 d3 a0 72 3e 27 14 0b 3e 16 57 a2 3d e3 63 70 3c
       0.23694162 0.13581906 0.079267666 0.014672252
000090 c0 2c a0 be 82 05 87 be 55 12 b9 be fd 1f 32 bf
       -0.31284142 -0.2637139 -0.361468 -0.6958006
0000a0 93 5d 9b be 51 5c 84 bd b5 2d 39 bf 3a 39 82 3e
       -0.3034483 -0.064629205 -0.7233537 0.25434285
0000b0 a3 53 e6 3e af f7 12 bf 95 8e 8a 3e 08 c1 a6 3e
       0.44985685 -0.57409185 0.27061906 0.32569146
0000c0 26 bc af be 28 ca ad bc 76 fd 0c 3c 45 b6 25 3f
       -0.34323233 -0.02121456 0.008605352 0.64731246
0000d0 52 cf ca 3e f1 92 b9 be 30 04 2e bf 31 25 a3 3b
       0.39611298 -0.3624492 -0.6797514 0.004978799
0000e0 28 f9 95 3f 2d 5e a5 bf 33 ae 92 be 33 4c 2e be
       1.1716661 -1.2919365 -0.28648528 -0.17021255
0000f0 6a 6b 03 c0 1c 9e ed 3e 1f 06 51 3d 3b 5a 71 be
       -2.053431 0.4640969 0.05103123 -0.23569576
000100 eb 6b c1 bd 39 1c 34 bf fc 94 c3 bd 62 53 26 bf
       -0.09444412 -0.70355564 -0.09549901 -0.6497098
000110 62 c5 39 bf 6a 7a 85 bf 23 f9 c8 be 18 b1 24 be
       -0.7256681 -1.0427983 -0.39252576 -0.16083181
000120 3d 8c 0c 3f 8e 0f 09 be cf 75 c8 bf 53 c0 bc 3e
       0.54901487 -0.1338484 -1.5660952 0.36865482
000130 b5 12 0d bf 6d 74 27 bf 4a e4 ce 3e 30 2b c8 be
       -0.5510667 -0.65412027 0.40408546 -0.3909545
000140 e0 c0 0c 3e cc 57 01 3e d4 1e d6 bd 5c 8e d6 be
       0.13745451 0.12631148 -0.10455099 -0.41905487
000150 a1 6d 6b 3e 7f 47 e9 bd f3 9e 05 bd fb 68 5c 3e
       0.22991039 -0.1139059 -0.03262229 0.21524422
000160 00 94 a1 bc e8 76 06 3e 1e 9f 9c bc d6 21 69 be
       -0.019723892 0.13131297 -0.019118842 -0.22766814
000170 cd c6 4c bf 03 9a fc 3d 40 bf b9 be fd 70 73 bf
       -0.79990846 0.12334063 -0.36278725 -0.9509428
000180 57 ea 82 3f 6a f1 9e 3d a9 91 39 bf fb c1 b5 3d
       1.0227765 0.0776089 -0.72487885 0.088748895
000190 58 01 50 3e a2 06 86 3e 17 ff ce 3e 35 b1 ac 3e
       0.20313013 0.26176935 0.40428993 0.33728948
0001a0 b2 c3 06 3f 49 27 51 bf ef ac 5b bc 2c 83 19 3e
       0.5264236 -0.8170057 -0.01340793 0.14991444
0001b0 76 29 2a be c8 a9 15 be d9 dd 77 bd 36 e0 4c bc
       -0.16617379 -0.14615548 -0.060514305 -0.012504628
0001c0 ff f6 39 3d 98 93 ae bd 09 1d 16 3d 4b 10 1d be
       0.04540157 -0.08524245 0.036648784 -0.15338247
0001d0 51 1a 13 be 5a da ac bd e6 bf 5f 3d b0 ef 6a 3c
       -0.14365508 -0.08440085 0.054626368 0.0143393725
0001e0 23 58 25 be 48 7a a6 bd 95 b1 15 be 93 13 17 be
       -0.16146903 -0.08128792 -0.14618523 -0.1475356
0001f0 93 91 44 3c 1d 3f 0d be 91 65 3f bd 14 cb a1 bd
       0.011997598 -0.13793607 -0.04672772 -0.07900062
000200 17 81 d4 bd 69 65 0f be 5d 98 df bd a2 2a 1f be
       -0.103761844 -0.14003529 -0.10917733 -0.15543607
000210 7b 3a 89 bd 6b 21 3f 3d 0b 5f be b8 58 5e 53 be
       -0.067006074 0.04666273 -9.077609e-05 -0.20641458
000220 ef 26 2c 3c 70 ab 2d be 8a fd 1d bd 12 fc 51 3d
       0.010507329 -0.1695993 -0.03857187 0.051265784
000230 bb 40 6f bd 28 65 40 be bd 91 fd 3c 0d 1d 05 be
       -0.05841134 -0.18788588 0.030953282 -0.12999363
000240 b3 20 f8 bd d2 59 51 bd 0b 2e 04 be 08 9c 2d be
       -0.12115612 -0.05111105 -0.12908189 -0.16954052
000250 f3 6f c8 bb 40 e4 1b be 7e 56 a0 bd f1 de 3f be
       -0.006116861 -0.15223789 -0.07828997 -0.18737389
000260 d7 c5 10 be 0e db 22 bd 05 d4 bd bd 6c cd dd bc
       -0.1413797 -0.039759688 -0.09268955 -0.027075492
000270 97 e9 c2 bd 68 50 9b bd f5 52 d6 b9 74 19 ee bd
       -0.0951721 -0.07583696 -0.0004087907 -0.116259485
000280 5d d5 d9 bb fa c7 5e be 90 ba ff bc e8 5b 45 be
       -0.0066477493 -0.21755973 -0.03121689 -0.1927334
000290 48 75 a3 3c 79 a0 2c 3c 0c 27 ca bd 25 79 69 be
       0.019953385 0.010536307 -0.09870729 -0.22800119
0002a0 2f 2b 02 be eb 2b 0c be 0e 4e 77 bd 9e f6 1b bd
       -0.12711786 -0.13688628 -0.060377173 -0.03807699
0002b0 60 b1 04 be c2 66 8c 3c 0f 7e b9 3b 86 45 1b be
       -0.12958288 0.017138842 0.0056607793 -0.1516324
0002c0 9c 29 6b be bb 93 b2 bc 37 4a 6e be 0b 0a 2b be
       -0.22965091 -0.021798959 -0.23270498 -0.1670305
0002d0 d6 7e d4 bd 01 7d c2 bd 0c 5c 0e be d7 5b 32 be
       -0.103757545 -0.09496499 -0.139023 -0.17417847
0002e0 a1 c4 96 bd 8a 5c 3e be f4 49 56 3d ad 6a 50 3d
       -0.07361723 -0.18589988 0.05231662 0.050882984
0002f0 bd 13 5e 3c 36 e2 99 3c 12 8d cb bd b3 df 2b be
       0.013554511 0.018784624 -0.099390164 -0.16784553
000300 99 9b c1 bd 29 53 1f 3d 48 37 16 be f1 b5 1f 3d
       -0.09453506 0.038897667 -0.14669526 0.038991872
000310 ca 44 dd bc 52 44 22 be 88 78 03 3d 8a 10 cd 3c
       -0.02701034 -0.15846375 0.03209737 0.0250323
000320 68 0d 35 bd 42 03 15 be 5c c3 ca 3c 45 99 68 bd
       -0.04420224 -0.14552024 0.024751358 -0.056786794
000330 f9 86 e0 3c dc a4 61 3b 06 db d7 bd 8c ca 9a bd
       0.02740811 0.003443054 -0.10539822 -0.07558164
000340 3d 89 49 3b 8a d4 20 3b 1e ce 62 3d 46 a9 5a be
       0.0030751966 0.0024540746 0.05537235 -0.21353635
000350 20 47 87 bd 9b 9d 23 be 07 c3 41 be 0e 0c 0f be
       -0.06605363 -0.1597809 -0.18922053 -0.13969442
000360 e5 ac 66 bd 47 9d 3b be 1e eb 19 be c4 98 9e bd
       -0.05631723 -0.18321715 -0.15031096 -0.077439815
000370 89 1c 3f be f2 ac 2d be 86 24 37 bd 21 66 67 be
       -0.18663229 -0.16960505 -0.044712566 -0.22597553
000380 3a d7 c4 bb de 72 82 bd e8 4e f8 bc 3a 5d ea bc
       -0.0060071023 -0.063695654 -0.030311063 -0.028608907
000390 4a 45 99 bd d1 93 b7 bd 05 41 0f 3a a2 7d 03 be
       -0.07483919 -0.089637406 0.0005464706 -0.12840894
0003a0 06 0c 27 bd 3d d7 4f be 52 1f 79 3c 20 74 da bc
       -0.04078295 -0.2029695 0.015205221 -0.0266667
0003b0 cd c9 ca bd 70 98 3b be f0 e8 53 be ef ff 2f 3d
       -0.09901772 -0.18319869 -0.20694327 0.042968687
0003c0 d6 30 33 bb 3a c3 d8 bd 6d 9b 5b be 4e 71 42 bd
       -0.002734234 -0.105841115 -0.21446009 -0.047471337
0003d0 62 01 00 be 2d a0 55 3c d2 ba 42 3d f4 cb 61 be
       -0.12500528 0.013038677 0.047541447 -0.22050458
0003e0 b7 87 24 3d ca 8c a9 bd ed c9 57 bd a4 f2 31 3c
       0.04016849 -0.082788065 -0.052682806 0.010861073
0003f0 ba 20 67 bd 92 5a 23 be f6 6b a3 3c a7 3d de bd
       -0.056427695 -0.15952519 0.01994894 -0.10851603

downsample.3.bias f4 [16]
000000 3a 2f 94 bc ab c5 7a 3e 29 f7 de bd 2e c8 60 bd
       -0.018088926 0.24489467 -0.10886986 -0.054878406
000010 4b ff 30 bd 53 57 ca bd 9f 35 bd 3e a5 bd ab 3c
       -0.043212216 -0.09879937 0.36954972 0.020964453
000020 57 85 cf bc fb af 12 be 3d d6 95 be 49 88 4e bc
       -0.025332136 -0.14324944 -0.29265013 -0.012605735
000030 32 43 30 be 73 de 1e be c5 96 ef bd a0 a3 2f be
       -0.17213133 -0.15514545 -0.11698679 -0.17152262

fc1.0.weight f4 [120, 576]
000000 1b 82 b9 3f 1b 30 34 3f 0c 36 99 3e eb f0 f6 be
       1.449283 0.70385903 0.29924047 -0.4823068
000010 4d a4 d3 bf e0 d4 ba bf 69 a6 e8 3e 03 de 11 3f
       -1.6534516 -1.4596214 0.4543946 0.5697939
000020 f4 f8 83 be 75 e8 af bf b8 42 b3 be 57 fa 84 bf
       -0.25775874 -1.3742815 -0.3501184 -1.0388898
000030 ff 6e 9d be f2 46 18 bf bd 0e 3b be d6 51 9c 3f
       -0.30748746 -0.59483254 -0.18267341 1.2212474
000040 3d 59 55 3f 3d b2 8a 3e 26 45 e0 be 64 34 01 3e
       0.8333929 0.2708911 -0.43802756 0.12617642
000050 5e b2 cb 3e 88 24 d1 3b 4e 1b 2a bf 5d c5 57 be
       0.3978452 0.0063825287 -0.66447914 -0.21071382
000060 b2 16 67 3f 31 5f 88 3d 88 ba c6 be 9e 80 f9 bc
       0.90269005 0.06658781 -0.38814187 -0.030456837
000070 19 63 ea 3d f1 d9 74 3e 45 0c c7 3e ae 42 28 bf
       0.11444683 0.23911263 0.38876548 -0.65726745
000080 2e 60 07 be c2 42 b4 3d e6 81 e0 3b 21 fb 1d bf
       -0.13220283 0.088017955 0.0068514226 -0.6171132
000090 11 7b e4 be a7 be 36 bf 3e fe 8d bf 18 e4 a6 bd
       -0.44625142 -0.7138466 -1.1093214 -0.08148974
0000a0 ec 72 04 c0 e9 27 ca bf 2a af c0 be 2d 5d 8c bf
       -2.0695143 -1.579343 -0.3763364 -1.0965935
0000b0 3e 3b e4 bf e7 5c f5 3e f9 3b eb 3e 11 eb 9d 3c
       -1.7830579 0.4792244 0.45944193 0.019277127
0000c0 4b 84 90 bf 07 ab 7f 3e f2 2f b2 bd 92 00 89 3e
       -1.1290373 0.24967586 -0.08700551 0.26758248
0000d0 e0 c1 36 3f 62 24 dc 3e b0 c6 24 bf dc ed 6d be
       0.7138958 0.42996508 -0.64365673 -0.23235267
0000e0 cb 73 db bf fe d2 3b bf 3a d9 34 be 8e 4c 07 bf
       -1.7144712 -0.73368824 -0.1766099 -0.5285119
0000f0 39 51 3d bf 16 99 8f be cf 33 37 bf 4f 78 87 bf
       -0.7395206 -0.28046483 -0.7156343 -1.058359
000100 f3 70 45 be 3e 80 92 3d 5a be 4d 3e e6 6f 83 3e
       -0.19281368 0.071533665 0.20092145 0.2567131
000110 c9 9b 88 be 60 a4 8e be 98 89 d3 bd cb f4 88 be
       -0.26681355 -0.27859783 -0.10328978 -0.26749262
000120 c7 73 c2 3d 3a b1 ea 3d 6c 16 ef 3d 58 dc dc 3c
       0.09494739 0.114595845 0.116741985 0.026960537
000130 32 37 3b 3b 74 67 53 3d ea f4 67 3d da 08 81 3d
       0.0028566835 0.051612332 0.056630053 0.063005164
000140 92 7e 42 3d 23 82 53 3d 10 d1 71 3d c7 3d 88 bd
       0.047483988 0.05163778 0.05903727 -0.06652408
000150 c9 5c 38 3c f5 3a 65 bc 8b a5 66 3d 82 99 ad 3d
       0.01125259 -0.013991107 0.056310218 0.08476545
000160 b1 0b 81 3d 22 c8 02 be 09 f4 99 bd 34 40 dd 3d
       0.06301058 -0.12771657 -0.07517249 0.108032614
000170 0c 47 86 3d fb d0 97 3d f1 83 8e 3d 98 03 14 3c
       0.0655652 0.07412907 0.069587596 0.00903406
000180 e8 0c f5 bd 3f 81 b5 3d a0 46 72 3d fc 29 2e 3d
       -0.11965352 0.08862542 0.059149384 0.04252051
000190 7e 4b d5 3d d2 8e 96 3d 19 22 b9 3b 24 54 b3 3c
       0.104147896 0.073514596 0.0056498167 0.021890707
0001a0 23 01 cf 3c 6c 01 22 3d 3c aa d3 3d 9c 5b c3 3d
       0.025269097 0.039552137 0.10335204 0.095389575
0001b0 bb 2a c3 3d 12 a5 03 3e 9f 59 ed 3d a0 55 aa 3d
       0.095296346 0.12855938 0.115893595 0.08317113
0001c0 ae 55 c0 3d 09 f0 46 3d ef e4 d5 3d f2 60 b5 3d
       0.09391342 0.04856876 0.10444056 0.088563815
0001d0 16 07 ae 3d 4d 50 9f 3d 62 78 a8 3d 22 c5 c4 3d
       0.08497445 0.07778988 0.08226086 0.096079126
0001e0 7b f5 c6 3d 99 49 be bc 8f b7 84 3d 63 f0 35 3d
       0.097147904 -0.023228453 0.064803235 0.044418704
0001f0 41 ec 9e 3d e8 85 57 3d 9d 81 8a 3d c6 1e 2a 3c
       0.077599056 0.052617937 0.06763003 0.0103833135
000200 41 d7 be 3c 7e 58 cf 3d de cb aa 3d a9 bd 2d 3c
       0.023296 0.101243004 0.08339666 0.010604301
000210 da 51 b9 bd 32 56 97 3b 56 06 cb 3d 55 5f 28 3d
       -0.09048815 0.0046184296 0.09913318 0.04110654
000220 26 3d 40 3c b6 3d 68 3d 39 f9 0f 3d 8f 78 7b 3d
       0.011733329 0.056699477 0.035149787 0.06139427
000230 4f a7 93 3b da c7 e6 3b c7 fd a6 3d 3e 0a 8b 3d
       0.0045060287 0.007042867 0.08153873 0.06789063
000240 02 c0 56 3d a4 fb 82 3d fc e2 75 3d af 3b 6f 3c
       0.052429207 0.06395653 0.060030922 0.014601632
000250 5d a1 79 3c 7a 83 15 bd 62 f5 ec 3b bc 4d 4c 3c
       0.015236226 -0.03650234 0.0072314003 0.012469705
000260 2d 6f 0d bb a4 d2 be 3b 10 fb 41 3c 36 36 58 bd
       -0.0021581159 0.00582345 0.011839643 -0.052786075
000270 ea f5 b4 3c ca 6f a1 3c 64 f5 83 3b 64 7b d6 bc
       0.022089917 0.019706625 0.0040270556 -0.026181884
000280 a9 f9 46 3d aa 85 d3 bc fd 61 05 bc af 59 ef 3c
       0.04857794 -0.025820572 -0.008141038 0.02921757
000290 9b 05 12 3d 0b 2a 81 3d 51 e9 a7 3d ae 18 06 bc
       0.035649877 0.06306847 0.081987984 -0.008184595
0002a0 eb f5 a4 3c 45 8f 1f 3d a6 b2 25 3d f3 c3 12 3d
       0.020136794 0.03895499 0.040453576 0.035831403
0002b0 c9 cb 92 3d e7 06 1d 3c 30 0f 9a 3c 8a 4a d1 bb
       0.07167775 0.009584165 0.01880607 -0.0063870596
0002c0 e1 ea 59 bc 22 54 aa 3c 24 7d a0 3d d3 d2 c9 3c
       -0.013300628 0.02079207 0.07836369 0.024636662
0002d0 4e 82 65 3d 5b 75 94 3c 0b ba 30 3d a0 1c 4e 3d
       0.05603247 0.018122366 0.043146174 0.050320268
0002e0 6a 68 a2 3d 50 1d d5 3d 4b d5 f7 3c 93 45 24 3d
       0.07930072 0.104059815 0.030253073 0.040105414
0002f0 db f8 86 3d 34 74 88 3c 21 8d c1 3d 61 b3 9f 3d
       0.06590434 0.016656972 0.09450746 0.07797886
000300 9c 2a 70 3d 63 ec d6 3d 13 bc af 3d bd b0 85 3d
       0.058634385 0.10494306 0.08580794 0.06527851
000310 18 a1 54 bb de f6 b2 3d 7c 81 8d 3d c6 db a1 3d
       -0.0032444652 0.087384924 0.06909463 0.079032466
000320 0f ad 8d bc 0a 6b d6 bc 0b 87 d2 bc db de dd 3d
       -0.017294435 -0.026174087 -0.02569916 0.10833522
000330 04 01 fc 3c ac 58 cf 3d b4 d4 a3 3d 29 f2 b9 3c
       0.030762203 0.10124335 0.07999554 0.022698479
000340 83 17 b3 3d 88 eb 7b 3d 75 19 cf 3c 83 01 4e 3d
       0.08744719 0.061503917 0.025280694 0.05029441
000350 ca 19 65 3d 5f d1 f1 3d 32 8b 9f 3d 0a 7d 0d 3d
       0.055932797 0.118075125 0.07790221 0.034543075
000360 5a 60 97 3d 5e 2d 3e bf 05 9a 2f bf 98 38 12 3f
       0.073914245 -0.74287975 -0.6859439 0.57117605
000370 78 58 21 3f 67 37 b3 be 79 9c 39 bf 53 25 97 be
       0.6302562 -0.35003206 -0.72504383 -0.29520664
000380 f8 9f f9 3e 3c 2b 99 3d e8 7e 39 3f a4 26 2b 3e
       0.4875486 0.074789494 0.7245927 0.16713959
000390 5d 4d 11 3f fd 19 1b be 8b 04 25 3f 40 f6 e4 be
       0.5675867 -0.15146632 0.6446006 -0.44719124
0003a0 b4 89 93 be 0e f4 63 be f5 ee 5e 3e 93 ab 59 3e
       -0.28815997 -0.22261068 0.21770842 0.21256857
0003b0 12 5f 26 bf b4 6f 83 3d 2a 9b 97 bf dc 15 ec bf
       -0.64988816 0.0641779 -1.1844227 -1.8444171
0003c0 bc ab ea be f0 01 8d 3e a4 e5 5f bf 1b c6 b2 be
       -0.45834148 0.2754054 -0.8745978 -0.34916767
0003d0 ec 49 27 3e 7e 6a 76 bf 0b 56 98 3f ac 81 10 3f
       0.16336793 -0.96256244 1.1901258 0.56447864
0003e0 ef c2 ff 3a ed 77 8f 3e 9a ec a9 3f ac ad 40 bd
       0.0019513051 0.28021184 1.327533 -0.047040626
0003f0 31 52 42 3d 22 19 66 3c f3 78 9a 3d 98 1e ad 3d
       0.047441665 0.014044078 0.075426005 0.08453101

fc1.0.bias f4 [120]
000000 2a 08 27 bf 54 a3 cf bc 86 9e 73 be cd 2c c4 bd
       -0.6524683 -0.025346436 -0.2379094 -0.095788576
000010 d0 c5 2f 3f 2d 71 8a bd b9 33 9e bd 4e e0 22 be
       0.6866121 -0.06759868 -0.07724709 -0.15905878
000020 e3 b2 1a bf 11 29 ad 3e b1 9f ff bc 5d c7 80 3e
       -0.6042921 0.33820394 -0.031204076 0.25152102
000030 9f d3 49 bd 82 42 db be d2 7c ea bd cd 71 8d bd
       -0.049274083 -0.4282418 -0.11449589 -0.069064714
000040 f2 a4 72 bf 4c d2 df 3d ae ad 23 bf be c4 9a bd
       -0.94782937 0.10928783 -0.6393689 -0.07557057
000050 7b 93 76 be f7 cc 5f 3e e5 f8 06 bd 64 9d 00 bf
       -0.24079697 0.21855532 -0.032952208 -0.5024016
000060 fa 61 4b be ea 17 f2 be f5 3b 2e 3f 8a 42 34 3f
       -0.19861594 -0.4728387 0.6806024 0.7041403
000070 e9 8d eb 3e a2 53 80 bf d6 a8 53 bd 46 cf ce bc
       0.46006706 -1.0025523 -0.051674686 -0.02524532
000080 a1 f6 00 bf c7 1e 45 3b 2a 6a 41 bd 9b 60 73 bd
       -0.50376326 0.003007816 -0.047220387 -0.059418302
000090 ac 4b b4 bd e0 55 06 bf a5 b6 13 3e 23 db 19 bd
       -0.08803496 -0.52474785 0.14425142 -0.0375625
0000a0 55 66 aa bd e5 b6 55 bd 23 a9 34 be d8 0b 57 3f
       -0.083202995 -0.052176375 -0.17642646 0.8400245
0000b0 ca c1 93 be 95 68 0b bf a0 42 d5 bc a4 6e 3c be
       -0.28858787 -0.54456455 -0.026032746 -0.18401581
0000c0 8e 97 67 bd ca 59 ac bb 4e 43 90 bd ad 78 d6 bd
       -0.05654102 -0.005259727 -0.07044087 -0.10472236
0000d0 8d be 96 bd c5 c1 45 bf 4f 97 00 bf 62 2f c9 bd
       -0.073605634 -0.77248794 -0.5023088 -0.09823491
0000e0 28 a1 23 bf 6d b9 97 bd bc be 44 be fe 0b 2e bd
       -0.6391778 -0.07408414 -0.19213384 -0.042491905
0000f0 ba a3 8c bd 76 0b d0 bd 68 0c 9d be 25 2a 56 bf
       -0.06867166 -0.10158436 -0.30673528 -0.8365806
000100 00 0d 75 be 5f fc 27 bf cc d2 84 3e 6f 81 34 be
       -0.2393074 -0.6561946 0.25942075 -0.176275
000110 ef b6 f4 bc 68 d9 f8 be 26 e4 f1 bc cb 4a 58 3e
       -0.029872386 -0.48603368 -0.029527735 0.21122281
000120 3d cc a3 bc a1 c5 8d be 81 3b e1 bc a7 7b ba bd
       -0.01999485 -0.2768984 -0.027494194 -0.09105616
000130 63 3c 26 3e 38 89 3c bd d8 e6 26 bf 29 9f b4 bd
       0.16233973 -0.0460293 -0.6519599 -0.0881942
000140 e7 1d c8 be 8a 34 46 3e 23 f6 41 bd 3d 66 95 bd
       -0.39085314 0.1935598 -0.047353875 -0.07294891
000150 e2 8e 03 bd 01 55 44 bd dd 61 43 be f0 45 0e be
       -0.032118686 -0.04793263 -0.190803 -0.13893867
000160 48 fe b4 bd 1c 9f 54 be 3f 94 9f bd 73 0a 35 be
       -0.08837563 -0.2076382 -0.077919476 -0.17679767
000170 c0 14 0a be bc f2 f8 bd 72 18 83 bd a1 bc b3 bd
       -0.13484478 -0.12155673 -0.06401147 -0.087762125
000180 c8 e3 6b bd 9e 9d 98 bc 44 40 c1 bd 4f 20 9d bc
       -0.057590276 -0.018629845 -0.09436086 -0.019180445
000190 5b b1 ae be 0c dd 65 be c4 87 06 3d dd 8f 52 bf
       -0.34119686 -0.22447604 0.03284432 -0.8225077
0001a0 ad fb d0 be 2a c7 95 bd 8b e0 45 be b8 40 9b bd
       -0.40817013 -0.07313378 -0.19323938 -0.075807035
0001b0 ec 95 5a bd 3e b5 ae bd bc cd 92 bd a6 16 fc bc
       -0.053365633 -0.08530663 -0.07168147 -0.030772518
0001c0 17 58 77 3e 57 d2 90 be f6 4c 33 be 9b 1f 8f 3d
       0.24154697 -0.28285477 -0.17509827 0.0698845
0001d0 87 63 c0 bd da 0c 31 bf 2e 89 b7 3e 32 1c 9c be
       -0.09393983 -0.69160235 0.35846847 -0.3049026

fc2.0.weight f4 [84, 120]
000000 3a e0 ed be d4 25 22 3d 94 0d ae be b6 f3 84 3d
       -0.46460134 0.039586857 -0.33994734 0.06491797
000010 2c d4 ac 3e 98 52 7e 3d 79 7a a2 bd c4 78 ae bd
       0.33755624 0.062090486 -0.07933516 -0.08519128
000020 48 ff 42 bf 0a 72 0d bf 13 67 8f bd aa 6a d7 be
       -0.7617078 -0.55252135 -0.07002082 -0.42073566
000030 3f 9b 57 bd a2 39 70 3d 30 f0 57 bd 4f 2c af bd
       -0.05263829 0.058648713 -0.052719295 -0.08553373
000040 d1 12 9b 3d c9 38 00 bf 7d a1 c6 3e b2 3f 8d bd
       0.07571948 -0.5008665 0.3879508 -0.068969145
000050 de f4 77 bf d6 4f 5a 3e 81 1d 8d bd d5 40 1c bf
       -0.9685801 0.21319517 -0.06890393 -0.61036426
000060 83 ad b3 bc 27 16 31 3d 6f ba c5 be c2 97 2a bf
       -0.021933323 0.043234017 -0.386188 -0.66637814
000070 8e d9 70 be 3d 7d 9b 3f a6 cf 8e bc 33 c6 b4 3c
       -0.2352049 1.2147595 -0.017432999 0.022067165
000080 fa 82 8e 3d 26 9a 26 3d 9b ee 76 bd a2 a4 f4 bd
       0.069585755 0.04067435 -0.060286146 -0.11945464
000090 3c 72 60 3d b4 c2 0c be 8b fd a1 3b 4a 8b 90 3d
       0.054796442 -0.13746148 0.0049435548 0.07057817
0000a0 24 2a 72 3d 48 e6 91 bd 2e de 71 3f 1b 5c a3 3e
       0.05912222 -0.07124001 0.94479644 0.31906208
0000b0 fa d7 d7 be f7 70 f9 3e 15 16 d3 bd 4c 85 1e bf
       -0.42156965 0.48718998 -0.10306946 -0.61922145
0000c0 52 0a d1 bc 31 78 02 bd f0 17 99 bc f1 dc eb 3a
       -0.025517616 -0.031852905 -0.018688172 0.0017994923
0000d0 c9 c4 0a bd 11 ff 8f be 88 91 c1 bf 23 0b eb bc
       -0.033879075 -0.28124288 -1.5122538 -0.028691834
0000e0 b5 85 78 be c0 d2 5c 3d 57 86 a9 bf a0 ea f0 3c
       -0.24269755 0.053911924 -1.3244122 0.029408753
0000f0 24 02 05 3d d0 7b 7e 3c 21 bc ba bd 1b 55 78 bf
       0.032472745 0.015532449 -0.09117914 -0.9700486
000100 2f f6 ef 3d ae 5d 51 be eb 18 3e bf 35 a5 09 bd
       0.11716878 -0.20445892 -0.7425677 -0.03360482
000110 68 0f 58 3d 91 46 88 bd 2a 9c a3 3d 1f 32 e7 be
       0.052749068 -0.066540845 0.0798877 -0.45155427
000120 84 36 b1 3d 77 19 98 be 95 42 73 bd e4 35 99 3d
       0.08652976 -0.29706928 -0.05938967 0.07480982
000130 7c c5 95 be 2d d9 71 bd 8c 17 71 3e a4 f3 98 bf
       -0.2925223 -0.059045006 0.23544139 -1.1949353
000140 d3 ec 62 bd 3b 6a 1c bf 9d 4e 07 be 19 df 2b be
       -0.055401634 -0.61099595 -0.13213582 -0.16784324
000150 a5 e6 c2 3c 8a 53 84 3d f7 92 80 bf d0 2c 1d 3f
       0.02379162 0.06461246 -1.004485 0.61396503
000160 1c 3f b0 bc e8 7c a6 3d a1 f5 b9 bd 6c d8 a0 bd
       -0.021514468 0.08129293 -0.09080053 -0.07853779
000170 8a 81 36 bd a4 11 e2 3c 2d 6a 14 3d b1 2a 6a bd
       -0.04455713 0.027596302 0.03623407 -0.05716962
000180 89 82 c3 bb 58 9c 33 3e 4d 83 b8 3c 50 67 34 3c
       -0.0059664887 0.17540109 0.022523547 0.01101096
000190 bd 58 35 3f b5 1a 9f 3c 33 ae f1 be d4 98 0f bf
       0.7083853 0.019421915 -0.47203216 -0.5609257
0001a0 4a 72 95 be f8 10 b5 bd 69 6b 11 3e 58 32 2e 3d
       -0.29188758 -0.08841127 0.1420113 0.04252848
0001b0 12 13 23 bd f8 d6 c2 bc c4 ae 3c 3d 89 3e 8f bd
       -0.03981311 -0.023784146 0.046065107 -0.069943495
0001c0 4f ef 9f bf 82 ef 7b be 21 08 3e bf b2 e0 af be
       -1.2494906 -0.24603084 -0.74231154 -0.34351116
0001d0 b1 a0 34 bc 79 1b 0c 3f e4 85 81 bf 91 d1 a9 bc
       -0.01102464 0.5472942 -1.0118985 -0.020729812
0001e0 10 07 55 bf 6b e9 30 bb 4f 58 15 3d f4 7e 69 3d
       -0.832139 -0.0026994597 0.03646117 0.057005838
0001f0 92 08 68 3d 57 ca d8 3c a7 7b 51 bd 3f 0b e2 bc
       0.0566488 0.02646367 -0.051143315 -0.027593253
000200 c5 42 d4 3d 3e 4b 99 3d 0a 44 de bd 6c 87 a4 3e
       0.10364298 0.074850544 -0.10852821 0.3213457
000210 df ac 03 be 22 5c 5e 3e 5c 2c bc bd 01 e1 ed bd
       -0.12858914 0.21714833 -0.091881484 -0.11615182
000220 a6 06 b2 bf 73 74 cf bc 52 4b 13 3f cb b9 30 bb
       -1.3908279 -0.025324082 0.57536805 -0.002696621
000230 ec 8e 44 bf c6 1b 6b 3e 7f 62 d6 3d 5a a9 5b bf
       -0.7678058 0.22959813 0.104680054 -0.85805285
000240 5c 76 75 bd 69 12 b1 be 8d 5e 83 be bf a3 20 bf
       -0.05992733 -0.34584358 -0.25658074 -0.62749857
000250 49 26 34 bf 69 27 50 3f 68 4d d8 bc fb 87 fd 3c
       -0.7037092 0.81310135 -0.026404098 0.03094863
000260 67 48 65 bf e8 0b e7 bd f8 b7 45 bc 1e f9 8b bd
       -0.895636 -0.11281568 -0.012067787 -0.06834625
000270 1a d2 35 bd cc 99 9a bc b7 cb b0 3e 26 7b e1 3d
       -0.04438982 -0.018872164 0.34530422 0.11009817
000280 e0 c1 b5 3d 5b a5 13 be b9 a3 5e 3e c0 64 7b 3e
       0.08874869 -0.14418547 0.21742143 0.24550152
000290 f5 44 57 bf 20 4c 88 bd 2b f6 e9 bd 6d 4e 1f bf
       -0.84089595 -0.06655145 -0.11423906 -0.62229043
0002a0 67 2f 8a 3c e1 27 88 bc 0d 6e 71 3d 84 f9 3e bd
       0.016868306 -0.016620578 0.058942843 -0.046624675
0002b0 9b 99 e5 3c c5 a8 9d 3e c5 28 84 bf 7a 49 ae 3b
       0.028027346 0.30792823 -1.0324942 0.0053188177
0002c0 85 51 86 be b7 57 d2 bb a5 34 27 be a6 72 11 be
       -0.2623407 -0.006419148 -0.16328676 -0.14203891
0002d0 73 ca 29 bd 2b 4b b8 bc 5f f3 89 bd 41 6c 2f be
       -0.041452836 -0.02249678 -0.067358725 -0.1713114
0002e0 37 2e 92 3a 00 28 ea be 73 67 6c bf 24 b3 2d 3c
       0.0011152689 -0.45733643 -0.9234535 0.0106017925
0002f0 0d 1d 50 bd cb 38 ec be 11 57 12 be db 9c a0 bf
       -0.050808955 -0.4613708 -0.14291026 -1.2547868
000300 0e 1d c2 bd a8 12 68 3b a7 99 43 bd 77 28 87 bc
       -0.09478198 0.003541151 -0.047753956 -0.016498787
000310 8c c8 99 3e 9a 41 35 bd 12 b9 47 3e 6f 40 cb bf
       0.30035818 -0.044252016 0.19504192 -1.5879039
000320 49 1e 2d bd cc 32 08 be e3 74 a8 bc 40 6a 07 be
       -0.04226521 -0.13300627 -0.020563548 -0.13224125
000330 0e 3c 12 bd b0 d5 6f 3d 00 2e 74 bf ad ba 99 3e
       -0.035701804 0.058553398 -0.9538269 0.30025235
000340 52 1f 03 3e b5 2e ce 3d 52 6a 08 bd 5d df 12 3c
       0.12804917 0.100675024 -0.03330452 0.008964387
000350 b9 43 15 bc 98 2c 74 bc 24 e9 d8 bc 81 6d a5 3c
       -0.009110385 -0.01490321 -0.026478358 0.020193817
000360 27 2b 8e bd f3 c4 7e 3e e5 ba 46 3b 60 01 1e 3c
       -0.069418244 0.24879818 0.00303238 0.0096438825
000370 78 b0 e3 3e e2 6a 21 39 e8 26 e9 be c2 4e b7 be
       0.44470572 0.00015393973 -0.45537496 -0.35802275
000380 1b 2d 39 be d3 e0 09 be 1b ae 70 3e d4 eb 5d 3b
       -0.18083613 -0.1346467 0.23503916 0.0033862488
000390 e4 bb 1a be df 9e a0 3c 28 82 8f 3d e1 b2 0a bd
       -0.15110737 0.019607006 0.07007247 -0.033862
0003a0 3d 6d 35 bf d0 8b f2 bd bc e3 ed be 21 5a bc 3c
       -0.7086981 -0.11843073 -0.4646281 0.022992196
0003b0 49 a9 28 3e 03 71 de be 64 2e e5 be f4 69 7c 3c
       0.16470827 -0.43445596 -0.44761956 0.015406121
0003c0 ad 70 e0 be 73 20 1b 3d 2d 1c 0f bf 00 1f 1a 3a
       -0.43835965 0.037872743 -0.5590237 0.0005879253
0003d0 e3 ef 5c be 52 9d 89 3b 51 b8 41 3d 41 e2 cc 3d
       -0.21575885 0.0041996622 0.04729492 0.10004092
0003e0 00 a9 8d 3d 4d 65 ba be d8 1c 71 bd 2e 2b 8c bd
       0.06917 -0.3640541 -0.0588654 -0.06844173
0003f0 6b a3 4b bc c6 42 cf 3a bc d4 bf bd ca da 04 bd
       -0.012429099 0.0015812747 -0.09366748 -0.032435216

fc2.0.bias f4 [84]
000000 c4 64 ee 3e 04 b1 19 3f 85 8e 42 bf c1 b6 a5 be
       0.46561253 0.6003573 -0.7599872 -0.32365993
000010 4f c2 13 be 0a 1f c0 bd 46 ef b0 3d cf f9 08 bf
       -0.14429592 -0.0938092 0.08639388 -0.5350618
000020 ea f4 47 bf 99 1a 63 bf 6f ad 4c bf 42 7b 11 bf
       -0.78108084 -0.8871246 -0.7995214 -0.568287
000030 73 d1 b2 bd 04 1d 1e 3f e0 1f eb be 0b 0b 29 bf
       -0.087313555 0.61763024 -0.45922756 -0.66032475
000040 fb 03 9f bf 13 9a 37 bf bb 5e 94 bf b9 ca 0d bf
       -1.242309 -0.71719474 -1.159141 -0.55387455
000050 70 98 82 be 31 f4 86 bf 2f bd 80 bf 10 92 3d bf
       -0.25506926 -1.0543271 -1.0057734 -0.74051
000060 e6 e2 ac be 7c 4e 4f bf f5 cc 9d bf 4b 4b 3a bd
       -0.3376686 -0.8097913 -1.2328173 -0.04548196
000070 8f e1 8e 3e 86 80 12 bf 61 4f cd bd d5 79 93 3e
       0.27906463 -0.5722736 -0.10024906 0.28803888
000080 50 30 f6 3d 0e bd 53 bf 10 c1 6e bb 7d 6d 4e be
       0.12020934 -0.8271035 -0.0036430992 -0.20158954
000090 0a 35 cf be 02 1e d7 3c 2c 10 22 3f 11 a6 a6 bf
       -0.40470153 0.026259426 0.63305926 -1.301943
0000a0 1e c6 ef be 9a 6e 97 bf 53 de 72 3e 59 3c 19 3f
       -0.4683084 -1.1830628 0.23717622 0.5985771
0000b0 b2 af 28 3f 82 2f a4 be 58 47 42 bf bf a6 b1 bd
       0.6589309 -0.32067496 -0.7589011 -0.086743824
0000c0 fd b5 47 bf 5e 27 9b be 19 ab 60 be 3c 9d 19 bf
       -0.7801207 -0.30303472 -0.21940269 -0.60005546
0000d0 4b a3 4a 3e 36 48 f0 be 2e 32 77 bf 0a 6d 96 bf
       0.19788854 -0.46930093 -0.96560943 -1.1752026
0000e0 f5 4e 4b bd 21 25 43 be 6d b3 56 bf c1 9b 1a bf
       -0.049635846 -0.19057132 -0.8386753 -0.6039391
0000f0 50 58 29 bf b9 88 e0 3d 9d 8d 61 3f 07 c4 91 bf
       -0.6615038 0.10963578 0.8810671 -1.1387948
000100 37 04 90 bf 56 f0 38 bc ab 33 3d bd a5 97 62 bf
       -1.1251286 -0.011287769 -0.046191853 -0.8851264
000110 c1 f8 28 bf 11 1c 84 bf ee de 31 3d 8b e7 1a bf
       -0.6600457 -1.0321065 0.043425493 -0.60509557
000120 4d ba 6f be f8 50 9a 3e 19 f3 5e bf 2b d7 4e bf
       -0.23410912 0.301399 -0.8708969 -0.8079707
000130 42 7e d2 3e 94 ed 3e bf b4 0c 7b bf 06 1a 82 bf
       0.41111952 -0.74581265 -0.9806626 -1.0164192
000140 e5 47 65 bf 02 33 d1 3e 39 13 68 bf e8 20 33 bf
       -0.8956283 0.40859228 -0.9065433 -0.69972086

fc3.weight f4 [10, 84]
000000 d7 c0 a7 be c7 cf 82 be c6 22 5d 3e 38 c2 ca 3e
       -0.32764313 -0.25549147 0.21595296 0.39601302
000010 9c 9b e9 bd 24 e3 a7 3e 65 89 aa be c2 90 5c bd
       -0.11406633 0.32790482 -0.3330795 -0.05384899
000020 9b dd 5b be 8c 04 ff be bf 54 1b be ad 43 48 3e
       -0.21471255 -0.49808156 -0.15169047 0.19557066
000030 6d 7f 06 be 41 d7 54 be 2f a3 bb be 88 ee 1b be
       -0.13134547 -0.20785238 -0.36647937 -0.15227711
000040 86 11 ca bd f6 48 3c 3e e7 ab 95 be e7 6b ba bc
       -0.098666236 0.18387207 -0.29232714 -0.02275653
000050 c9 11 f5 bc b2 59 11 3d 49 84 5e be 3c a0 2c be
       -0.029915707 0.03548593 -0.2173015 -0.16858
000060 9a 05 f0 be 5c 4e bf be 77 4d e0 3d 2c d5 34 3c
       -0.46879274 -0.3736447 0.10952275 0.011037152
000070 92 f9 94 bf 2f 69 c0 bd be c6 07 be 3e 70 e8 be
       -1.1638663 -0.09395062 -0.13259408 -0.45398134
000080 ec 57 c5 3e 40 62 19 bf bd d9 8f 3e e6 8b 4b 3d
       0.38543642 -0.5991554 0.2809581 0.049693964
000090 95 b5 16 3c de 49 b4 3e ae 12 e1 bf 33 ea 16 bf
       0.009198566 0.35212606 -1.7583826 -0.5895111
0000a0 b6 b2 0c be 0a 56 85 3d 1a d5 38 3e d5 83 60 3e
       -0.13740048 0.06510551 0.18050042 0.2192529
0000b0 6e 64 e4 bd d2 a6 b2 be af 04 97 be a8 f4 f0 bd
       -0.11151968 -0.348929 -0.2949576 -0.117654145
0000c0 98 ff 9e be 5c 3b 93 3d 9d 02 56 3d 2c 3f 01 be
       -0.31054378 0.07189056 0.052248586 -0.12621754
0000d0 cf c9 65 bf c4 40 92 3d f8 aa d0 3d 6f 5b 7b be
       -0.8976106 0.07141259 0.1018886 -0.24546598
0000e0 b4 ce c1 be a4 c1 0f be a6 04 c7 3e 23 fc 3d bf
       -0.37853014 -0.14038712 0.38870734 -0.74212855
0000f0 af 7b 94 3e 85 5c 62 bf 04 bc d8 be a0 fa e4 3e
       0.29000613 -0.88422424 -0.42330945 0.44722462
000100 4d 06 67 bf b2 76 e3 bf b0 65 10 be 58 56 01 be
       -0.9024399 -1.7770598 -0.1410129 -0.12630594
000110 e0 aa b4 3e 76 ce 2b bf 8b 05 31 bf 54 95 31 be
       0.35286617 -0.6711191 -0.6914908 -0.1734212
000120 35 c7 ad bd 44 03 91 bd a9 1f 31 bf 77 05 54 be
       -0.08485261 -0.07080701 -0.69188935 -0.2070521
000130 d3 32 44 be 28 72 cd be d0 74 94 be aa fd 50 bf
       -0.19160013 -0.40126157 -0.2899537 -0.8163706
000140 22 e3 6d be 46 5d da bd b9 a1 16 bf 4f e6 57 3d
       -0.23231176 -0.10662322 -0.5884052 0.052709874
000150 35 51 2b be 52 60 76 3e b2 af 7a 3e 99 0e b8 be
       -0.16730197 0.24060181 0.24481085 -0.35948637
000160 42 7a 6b bc 6a a3 d6 bd 68 7b 4b bf 1c 9f 66 bf
       -0.01437241 -0.104803875 -0.7948518 -0.9008653
000170 8d 0b e6 3d 67 4c 74 3e 60 c8 bf be 0a 9e 41 bf
       0.11232672 0.2385727 -0.37457561 -0.75631773
000180 71 65 32 be 73 0d 1a bf 79 77 3e 3e 8a e6 3d 3e
       -0.1742151 -0.6017677 0.18600263 0.18544975
000190 73 db 98 bf 1e b7 76 3d 76 92 b1 3e c9 8c e8 be
       -1.194197 0.060233228 0.34682053 -0.4541991
0001a0 43 03 a6 be 39 24 00 3e f5 07 fa 3c 5d 8b 03 bf
       -0.32424363 0.12513818 0.030521372 -0.51384526
0001b0 3f 7f 82 be 51 3b 9c bf fa 15 55 bf b8 6e 36 3d
       -0.25487706 -1.2205602 -0.8323666 0.044539183
0001c0 6c 4c 01 bf 3e 48 31 be 5f e4 19 bf ca 5c b2 3e
       -0.50507236 -0.17312714 -0.6011409 0.34836417
0001d0 75 60 3c bf c1 e8 96 be 91 dd 8e 3e f2 e8 12 be
       -0.7358468 -0.29474452 0.27903417 -0.14346674
0001e0 e2 35 88 3c db 06 fa be 8b 57 4b 3e f5 f4 aa 3d
       0.016627256 -0.48833355 0.19857614 0.08347503
0001f0 65 e2 a4 3d 79 8a 4c be 1f a6 f7 3e 24 a4 d3 be
       0.08050994 -0.19974698 0.48368928 -0.41336167
000200 59 39 fe be 1f 2d 8b bf 4b c0 a9 3e cf ef c3 3d
       -0.49653128 -1.0873145 0.3315452 0.09567224
000210 6c d0 2d be 24 72 02 3e bf ce d4 3d e2 fb 7d be
       -0.16974038 0.12738854 0.10390996 -0.24803117
000220 f6 f5 d8 be 5a dc d0 bd 72 7b 38 bd 82 11 69 bf
       -0.42375153 -0.10198279 -0.0450396 -0.9104234
000230 1d 3b c5 be 4f 12 c9 bd dc 80 6b 3d 75 19 8b be
       -0.38521662 -0.09817945 0.057495937 -0.2716786
000240 aa 0f a1 be 29 26 d0 3d c4 01 89 3e c8 99 80 be
       -0.31457263 0.101635285 0.2675916 -0.25117326
000250 f5 fb ba be c3 7b da 3e 1d 75 2d 3e c3 ad 11 3d
       -0.36520353 0.42672548 0.16939206 0.035566103
000260 de 49 40 bf 6d 1b 73 bf 03 63 f8 be 21 80 92 3d
       -0.7511271 -0.94963723 -0.4851304 0.07153345
000270 e7 52 86 3d ae 76 8e be b7 07 01 bf 17 85 b3 be
       0.06558781 -0.2782492 -0.50402397 -0.35062477
000280 5c 0d 95 bd 87 a3 74 bf 1c f5 b6 bf e0 2e b3 bf
       -0.07277939 -0.9556202 -1.4293551 -1.399868
000290 fd 46 d5 3d 1d 7f 6d bf e7 39 3d 3e c8 43 bf bd
       0.104139306 -0.92772084 0.18479119 -0.093391
0002a0 c4 de 51 bb d6 74 f0 be 10 7c e7 bd fc 61 9c be
       -0.0032023648 -0.4696414 -0.1130296 -0.30543506
0002b0 2b 4c d4 bc 80 c5 07 3c 08 a2 4f 3e 2e 9f 39 be
       -0.025915226 0.008286834 0.20276654 -0.18127128
0002c0 67 83 d2 3d 89 cc 80 3e ef f1 59 3d bd 05 1a be
       0.10278969 0.25156048 0.05320924 -0.15041251
0002d0 52 dc 06 be ae 5e 91 be b0 80 b6 bd 91 15 c7 be
       -0.13169983 -0.28392547 -0.08911264 -0.3888364
0002e0 5f cf e1 be 92 69 05 bd d9 f5 15 bf bb bf e1 bc
       -0.44103524 -0.032571383 -0.5857826 -0.027557245
0002f0 41 7a 32 bf d2 e5 ba be 58 f9 33 be 5b 01 cc be
       -0.69717795 -0.36503464 -0.17575586 -0.39844784
000300 a4 5a 2e bf 28 c5 0c bf 99 be c6 bc c7 bd 00 bd
       -0.68107057 -0.54988337 -0.024260806 -0.031430986
000310 53 80 77 be 9a 71 c0 be f1 75 0b 3e 4a 16 8d be
       -0.24170046 -0.3758667 0.1361921 -0.27556068
000320 4a c8 ed bd 76 6b 90 be ed df 27 be 21 b8 2d 3c
       -0.11610468 -0.28206986 -0.16394015 0.010602982
000330 bb 59 5e 3d 46 03 64 3e 95 2f a8 3d 71 7b 5a 3d
       0.054284792 0.22266874 0.082122006 0.05334038
000340 4c 9b 9f 3e 5c 03 c2 be b6 dd 4e be c4 c7 78 3e
       0.3117317 -0.37893188 -0.20201764 0.24294955
000350 8e 10 cb 3d 17 f3 cb be 93 3e 81 3e 39 4a d7 bd
       0.09915267 -0.398339 0.25243053 -0.10512204
000360 3b e3 2f bd 1c 91 a8 be 20 a7 ee bc 1c e9 04 be
       -0.042941313 -0.3292321 -0.029132426 -0.12979549
000370 a4 fd 7f be b4 35 13 3e 79 83 9a be f6 2f eb be
       -0.249991 0.14375955 -0.3017843 -0.4593503
000380 4a fb 93 be ac 9d d3 bd dc 80 98 be 92 ca 8c 3d
       -0.28902656 -0.10332808 -0.29785812 0.06874575
000390 3d e9 d6 3c ca 23 87 be 2a ef 70 be fe 8f d2 be
       0.026234264 -0.26394492 -0.23528734 -0.41125482
0003a0 6c b0 d7 be 4b 3f 45 3d 3f 3d 12 be 42 ad ac be
       -0.42126787 0.048156064 -0.14281176 -0.33725935
0003b0 46 c2 1a 3e 7c a6 0f bf 4a 78 56 bd ef 25 df 3d
       0.15113172 -0.5611341 -0.05236081 0.10895907
0003c0 4f 90 4f 3c d1 70 3c 3d e8 1d a0 3d 3c 04 81 be
       0.012668683 0.046006028 0.07818204 -0.25198543
0003d0 2b 24 07 3f da 7b e8 3a 70 ff 54 bf 7c 9b fb bd
       0.5278956 0.0017737106 -0.83202267 -0.12285516
0003e0 a9 68 94 bd 28 62 de bc d2 1d 8b 3d 12 d9 0d be
       -0.07246525 -0.027146414 0.06792797 -0.13852337
0003f0 3b ea b9 be d6 3b 38 bf 82 70 a5 bd 4e b0 c8 bd
       -0.36311516 -0.719663 -0.080781 -0.097992525

fc3.bias f4 [10]
000000 c2 62 b0 be df 81 cf 3e 40 f3 95 3d 3c b7 58 3e
       -0.34450346 0.4052877 0.07321787 0.21163648
000010 3d 45 1f 3d 40 8c 46 be 08 68 e1 be a3 7f 55 bd
       0.03888439 -0.19389439 -0.44024682 -0.052123677
000020 72 dc 39 3f fe d9 97 be
       0.72602 -0.29658502
