LeNet/LeNet_model.pth (torch, 330439 bytes, 10 tensors)

weight f4 [6, 1, 3, 3]
-0.064327225 0.2076118 0.16437107 0.7066883 0.36606142 0.64819264 0.4894135 0.53691345
0.26196605 -0.12631309 0.0015160197 0.6577819 0.4967251 0.34981456 0.687387 0.24928409
0.8630335 0.94759595 0.45499694 0.2747338 -0.026996851 0.13482895 -0.22653136 0.07961831
0.052248918 -0.29622248 0.2808385 -0.25808263 -0.28261784 0.12468176 -0.10534293 -0.28262082
0.13880841 -0.12011185 -0.052541804 -0.20173894 -0.0546792 -0.1497776 0.06661221 -0.25002134
-0.10077704 0.16383816 -0.08443225 0.32814693 0.22930191 -0.09099517 0.1668258 0.5325049
0.23021942 0.97420937 0.81427354 0.74535197 1.039155 0.7191089
00000000: febd 83bd 3098 543e e450 283e 86e9 343f
00000010: 676c bb3e f4ef 253f 6894 fa3e 2973 093f
00000020: 6a20 863e 3858 01be 2eb5 c63a 6564 283f
00000030: c152 fe3e e51a b33e 98f8 2f3f 5444 7f3e
00000040: c3ef 5c3f a695 723f 5cf5 e83e e9a9 8c3e
00000050: 8028 ddbc 9a10 0a3e d6f7 67be ed0e a33d
00000060: f602 563d 79aa 97be 10ca 8f3e 6823 84be
00000070: 49b3 90be 2759 ff3d 09be d7bd adb3 90be
00000080: cb23 0e3e 34fd f5bd 1336 57bd a794 4ebe
00000090: 4cf7 5fbd 4d5f 19be fb6b 883d cc02 80be
000000a0: 3164 cebd 31c5 273e d1ea acbd e002 a83e
000000b0: 1fce 6a3e ad5b babd 62d4 2a3e 3e52 083f
000000c0: a4be 6b3e c965 793f 3b74 503f 63cf 3e3f
000000d0: 0803 853f 8517 383f

bias f4 [6]
0.06503491 -0.00021554966 0.22713609 0.0054545724 0.051130284 -0.0004923421
00000000: 0631 853d 2c05 62b9 5d96 683e 45bc b23b
00000010: fd6d 513d 8510 01ba

weight f4 [16, 6, 3, 3]
-0.05908088 -0.019560369 -0.038574327 0.13150612 -0.12564532 0.00696139 -0.080849074 -0.06747531
-0.027788624 -0.06773998 0.015312779 -0.109582596 0.041026726 -0.09744421 -0.044738393 0.067698725
0.029790055 -0.0577345 0.08998823 -0.00546214 -0.097477905 -0.1270655 -0.013340837 -0.08466388
0.008304105 0.009483725 0.07822423 0.07378421 -0.10108288 -0.04574325 0.068161406 0.0040494157
0.0325249 0.007743244 0.048264623 0.05113889 0.10737674 -0.024741825 0.023896117 -0.06323256
0.011059127 0.013359779 0.02429128 -0.12123654 -0.06362355 -0.03494204 0.09748112 0.060626213
-0.11351389 0.120453246 -0.060540516 -0.025742793 -0.12897412 -0.018114785 0.20835148 0.04020881
0.17578606 0.07784618 0.085647084 0.05373818 0.123136766 0.24110135 -0.016271422 0.1316568
0.1435049 0.15628983 0.13299868 -0.022149118 -0.11249273 -0.0115146255 0.29831046 0.107844815
-0.071631774 0.07852722 -0.058458902 0.11791382 0.04127703 -0.019924296 0.055220205 -0.01876021
0.15065153 -0.043763362 0.10172253 -0.041424025 -0.11957756 -0.11966794 0.12518889 0.0855424
-0.056535624 0.105486795 -0.09275 -0.1420967 -0.12172104 -0.016530843 -0.05476872 -0.118705235
-0.00050533516 -0.046281405 0.02622527 0.23578952 0.29682273 0.098411426 0.08139429 0.15676375
0.07212657 0.1667551 0.27472678 0.069669805 0.06459902 0.17920487 0.09861477 0.20221448
0.26735815 0.20552827 -0.15329134 -0.1224089 0.0072154826 0.1550637 0.14212728 -0.113475956
0.060737684 0.25914153 0.29185542 -0.3289829 -0.120038025 0.25761652 -0.00787319 0.111426175
-0.062791914 0.0531164 -0.021387678 0.0757253 0.09007801 -0.06351117 0.12812836 0.06604579
-0.026013454 0.11760075 -0.064096466 -0.11098824 -0.026149318 0.016541904 0.10806154 -0.02330788
0.05141621 0.03831023 -0.06478373 0.11484846 -0.095430195 0.08555792 -0.12045446 0.005088679
0.08268813 0.2168453 0.13426398 -0.08195212 0.19305477 0.19348091 0.34553543 -0.2857453
-0.2268223 0.20916513 0.092487074 0.10447891 0.10944866 -0.14082679 0.12523553 -0.0035434158
-0.16660693 0.05354607 0.12410621 -0.13925885 -0.051049083 -0.00556302 -0.18229337 0.10068298
0.111957826 0.055290557 0.04136609 0.16585045 -0.11081594 0.021826025 -0.033383228 0.12852266
-0.0065906607 -0.011740142 0.0558378 0.046269245 -0.10262977 0.0040744394 -0.114633664 -0.063777365
0.026635299 -0.08535398 -0.06361239 -0.10362064 0.10972613 0.013496553 -0.1025294 -0.06903963
0.1407941 -0.13792565 0.07360436 0.010596954 0.060051605 0.020169038 0.096726924 -0.041994274
0.030825138 -0.032720752 -0.19513227 -0.0014129616 0.089184806 -0.16676755 -0.022713663 0.00943253
-0.037124015 0.16490377 0.060106236 0.12179952 0.13576864 0.10020738 0.17720062 -0.09392352
-0.051423896 0.14887191 0.20391044 -0.06836546 0.17736411 0.115933925 -0.048012953 0.0068435012
0.020912081 -0.014080394 -0.14000303 -0.121246316 0.027594708 0.12831971 -0.069943696 -0.018896252
-0.00490703 0.104720704 -0.09460416 -0.13504738 0.120368846 -0.06941267 0.13535151 -0.009932916
-0.10878393 0.02187353 0.021899026 0.13155654 0.102675885 0.005316624 -0.06065285 -0.01251257
00000000: cbfe 71bd 113d a0bc 1d00 1ebd 8aa9 063e
00000010: 2ba9 00be 5f1c e43b 3394 a5bd 7f30 8abd
00000020: f8a4 e3bc 42bb 8abd 73e2 7a3c d76c e0bd
00000030: a40b 283d d490 c7bd 9b3f 37bd a1a5 8a3d
00000040: 460a f43c 037b 6cbd c04b b83d c0fb b2bb
00000050: 7fa2 c7bd 751d 02be 8793 5abc 4264 adbd
00000060: f10d 083c a061 1b3c 0634 a03d 2d1c 973d
00000070: 8a04 cfbd 465d 3bbd 3598 8b3d f6b0 843b
00000080: d438 053d 0abb fd3b 20b1 453d 0377 513d
00000090: 56e8 db3d 5eaf cabc cac1 c33c 1380 81bd
000000a0: 5731 353c f9e2 5a3c 82fe c63c dd4a f8bd
000000b0: 104d 82bd 621f 0fbd 2ea4 c73d 3153 783d
000000c0: f879 e8bd 31b0 f63d 55f9 77bd 8de2 d2bc
000000d0: cb11 04be 7565 94bc 175a 553e feb1 243d
000000e0: 4301 343e d16d 9f3d bd67 af3d 911c 5c3d
000000f0: 212f fc3d 46e3 763e a54b 85bc 0ad1 063e
00000100: f3f2 123e 710a 203e ce30 083e 1172 b5bc
00000110: 9762 e6bd d7a7 3cbc 26bc 983e bedd dc3d
00000120: aeb3 92bd e1d2 a03d 9a72 6fbd cd7c f13d
00000130: 1a12 293d 4738 a3bc 952e 623d 03af 99bc
00000140: 6544 1a3e 3641 33bd e753 d03d 3dac 29bd
00000150: 14e5 f4bd 7714 f5bd 8431 003e db30 af3d
00000160: e691 67bd 7609 d83d b6f3 bdbd cc81 11be
00000170: e148 f9bd b16b 87bc 2a55 60bd bb1b f3bd
00000180: 7878 04ba 9291 3dbd 61d6 d63c cf72 713e
00000190: 26f9 973e ee8b c93d 0db2 a63d ad86 203e
000001a0: 18b7 933d d9c1 2a3e fda8 8c3e 0baf 8e3d
000001b0: 7e4c 843d 7b81 373e 8af6 c93d 5011 4f3e
000001c0: 2be3 883e 0176 523e 68f8 1cbe 84b1 fabd
000001d0: db6f ec3b 05c9 1e3e d089 113e 1566 e8bd
000001e0: 14c8 783d 33ae 843e 136e 953e 7270 a8be
000001f0: 7fd6 f5bd 50e6 833e 8dfe 00bc 6833 e43d
00000200: 0c99 80bd 9590 593d 3635 afbc de15 9b3d
00000210: d27a b83d 2512 82bd 1534 033e 0443 873d
00000220: 2b1a d5bc a9d8 f03d 0245 83bd cd4d e3bd
00000230: 1837 d6bc e382 873c 5e4f dd3d 2bf0 bebc
00000240: ce99 523d 30eb 1c3d 55ad 84bd ab35 eb3d
00000250: e870 c3bd fe38 af3d d4b0 f6bd efbe a63b
00000260: 6558 a93d b20c 5e3e 7f7c 093e 83d6 a7bd
00000270: 26b0 453e dc1f 463e 05ea b03e 354d 92be
00000280: 1b44 68be 622f 563e dd69 bd3d 0af9 d53d
00000290: 9e26 e03d e634 10be be3d 003e a738 68bb
000002a0: 029b 2abe 2053 5b3d 662b fe3d df99 0ebe
000002b0: d818 51bd fe49 b6bb 1dab 3abe e132 ce3d
000002c0: 254a e53d 5a78 623d 7d6f 293d b3d4 293e
000002d0: 78f3 e2bd 7ecc b23c dabc 08bd 729b 033e
000002e0: 78f6 d7bb b959 40bc 2db6 643d d284 3d3d
000002f0: 8f2f d2bd e082 853b 0ec5 eabd b59d 82bd
00000300: 4532 da3c 11ce aebd 3647 82bd 0f37 d4bd
00000310: 18b8 e03d a520 5d3c effa d1bd a664 8dbd
00000320: 542c 103e 623c 0dbe e2bd 963d d99e 2d3c
00000330: acf8 753d 8a39 a53c c418 c63d 3002 2cbd
00000340: 0085 fc3c 3206 06bd c1d0 47be 2033 b9ba
00000350: 86a6 b63d 1dc5 2abe 0112 babc e68a 1a3c
00000360: 5a0f 18bd 89dc 283e f531 763d 0772 f93d
00000370: ef06 0b3e 8739 cd3d 1474 353e f95a c0bd
00000380: dda1 52bd e171 183e e6cd 503e 3103 8cbd
00000390: f09e 353e c46e ed3d 3ba9 44bd 733f e03b
000003a0: d04f ab3c 74b1 66bc f45c 0fbe fd4f f8bd
000003b0: 4c0e e23c 3e66 033e a43e 8fbd 50cc 9abc
000003c0: 27cb a0bb cf77 d63d d3bf c1bd dc49 0abe
000003d0: f183 f63d 3b28 8ebd 9699 0a3e abbd 22bc
000003e0: 1cca debd 1e30 b33c 9665 b33c c2b6 063e
000003f0: bc47 d23d 1337 ae3b 1f6f 78bd 8601 4dbc

bias f4 [16]
0.075752914 0.0425702 -0.062702164 0.16946797 -0.012013709 0.017073184 0.004099786 -0.14988418
-0.09552121 0.10270817 0.2131473 -0.111796476 0.068981245 -0.10984585 0.0840919 -0.11538068
00000000: 5824 9b3d 175e 2e3d fe69 80bd 0389 2d3e
00000010: 26d5 44bc 10dd 8b3c 7f57 863b 3d7b 19be
00000020: a0a0 c3bd a958 d23d 4943 5a3e 8df5 e4bd
00000030: 0a46 8d3d dcf6 e0bd 6038 ac3d b54c ecbd

weight f4 [120, 576]
-0.009718721 -0.0060722805 -0.019349517 -0.004349263 -0.030640263 -0.005321588 0.02761366 0.011498596
0.010561641 -0.018146476 -0.023066035 -0.01025522 0.012151021 0.00083980913 -0.007875595 0.025357548
-0.001478415 0.0077101323 0.007345487 -0.020388735 0.0016106929 -0.041299902 0.03895767 -0.015721485
0.032427616 0.024578054 -0.005525917 -0.008665327 -0.016403936 -0.028383331 0.012824527 -0.022404931
-0.011756575 -0.02224731 0.02792345 0.03648036 0.009721817 0.0014682899 0.0048262677 -0.017172169
0.02201887 -0.009590708 -0.026086442 -0.027978068 0.025138618 -0.027306732 -0.020729098 0.01671452
0.011125183 -1.802261e-05 -0.026401127 0.018591829 -0.030045971 0.009958511 -0.02320958 0.022905272
0.008305379 0.018297784 0.035357457 -0.011112839 0.0015734434 -0.03334171 -0.009992213 0.0075266086
-0.0054899245 0.008301615 0.03104675 -0.018363645 0.0022200476 0.040068507 -0.032531016 -0.0017101883
-0.038447764 0.015921721 -0.016734418 -0.005224028 -0.02947512 -0.005085568 0.008585474 0.0008729675
-0.036282863 0.0025268048 0.0120087005 -0.03955071 0.035761382 0.028973944 0.005359863 -0.008383343
-0.015313787 -0.00036283338 -0.038532168 -0.0067194626 0.005187203 -0.020523837 -0.011739868 -0.015293145
0.040375095 0.01412155 -0.037315276 0.022787094 -0.040884458 0.016041389 -0.0032748252 -0.019821461
-0.0266913 0.012275133 0.011327956 -0.03604669 0.00064460794 -0.014184957 -0.032902945 0.03713917
0.037789263 0.021356465 -0.027000055 0.017604085 -0.0010900534 -0.021253033 -0.03480764 -0.03444137
-0.014928721 -0.030263374 -0.025556237 0.028291112 0.03972989 0.041451003 -0.012175502 0.024273273
0.030930988 0.010314702 0.031403337 -0.033317406 -0.041271646 0.011694815 0.017527005 0.031958073
-0.03958522 -0.03606055 -0.005797028 -0.0014249997 -0.010265357 -0.02954191 -0.011329481 0.02061068
0.013167175 -0.0043948554 0.0089732455 -0.0015997096 -0.036174864 -0.027650926 -0.013942479 -0.03299259
-0.008413104 -0.022164501 -0.029888138 -0.03136401 -0.03760097 0.039021287 -0.0103645995 -0.035952378
-0.025650347 0.017894221 0.014249715 -0.029674686 -0.023885498 0.0232071 0.03351519 -0.013660756
-0.013627677 0.004048904 -0.009686505 0.017932799 -0.025326496 0.03340893 0.028571982 -0.026757399
-0.0017842985 -0.0070239333 -0.02255768 -0.013044023 -0.037679683 -0.03663161 -0.018609673 0.035784982
-0.030764917 0.017724361 -0.014695367 0.0011341833 0.025350992 -0.03648345 0.028727114 -0.03202808
-0.025529072 -0.009596109 0.04152557 0.0149236955 0.014747099 0.02863643 0.039948862 -0.023045182
-0.0007516444 -0.00792351 -0.028802931 0.027634475 0.020006195 -0.032622255 -0.004722569 -0.025735637
0.0034893267 0.0104238205 0.041547317 -0.013501897 -0.00060507655 -0.011033084 0.008750573 0.013428684
0.011489954 -0.006604484 0.015641302 -0.008195113 0.039263655 -0.030503973 -0.0058622807 0.0061519374
0.005577325 0.011478614 -0.008998334 0.040697996 -0.014026171 -0.037268367 -0.02823837 -0.030101797
-0.0057174508 0.026165593 0.032514382 -0.036239747 -0.01988915 -0.034398466 -0.023345154 0.017565519
0.029139686 -0.016254809 0.0017613353 -0.03425344 -0.024409298 -0.023525203 -0.005406473 0.02121827
-0.036004886 0.040313113 -0.008244436 -0.03460834 -0.01335038 -0.008333191 -0.020934336 0.030128423
00000000: 453b 1fbc fbf9 c6bb e182 9ebc 4384 8ebb
00000010: 4a01 fbbc b760 aebb 0b36 e23c 9b64 3c3c
00000020: bc0a 2d3c eba7 94bc fbf4 bcbc 8305 28bc
00000030: 1315 473c a326 5c3a a408 01bc a2ba cf3c
00000040: 60c7 c1ba 47a5 fc3b 69b2 f03b 4706 a7bc
00000050: e31d d33a 162a 29bd 1492 1f3d 58ca 80bc
00000060: d2d2 043d ea57 c93c c012 b5bb 04f9 0dbc
00000070: 8c61 86bc 2984 e8bc f71d 523c 8c8a b7bc
00000080: a69e 40bc fe3f b6bc b8bf e43c 6e6c 153d
00000090: 4248 1f3c a273 c03a ab25 9e3b a6ac 8cbc
000000a0: eb60 b43c 5822 1dbc 3cb3 d5bc 4332 e5bc
000000b0: 81ef cd3c 5eb2 dfbc 12d0 a9bc e4ec 883c
000000c0: 6646 363c 432f 97b7 2d47 d8bc e44d 983c
000000d0: f822 f6bc 0629 233c 0422 bebc d6a3 bb3c
000000e0: 4913 083c 3ce5 953c fbd2 103d a012 36bc
000000f0: 003c ce3a 5191 08bd 61b6 23bc c5a1 f63b
00000100: d3e4 b3bb 7f03 083c c155 fe3c 5b6f 96bc
00000110: 387e 113b e01e 243d 3e3f 05bd 6628 e0ba
00000120: 677b 1dbd 456e 823c 9e16 89bc 532e abbb
00000130: cf75 f1bc d6a4 a6bb 17aa 0c3c dbd7 643a
00000140: 579d 14bd c098 253b 24c0 443c edff 21bd
00000150: 877a 123d c45a ed3c caa1 af3b 4a5a 09bc
00000160: aee6 7abc ac3a beb9 e8d3 1dbd f02e dcbb
00000170: 6af9 a93b 9b21 a8bc 9358 40bc 1990 7abc
00000180: 5b60 253d 135e 673c e7d7 18bd 00ac ba3c
00000190: 7676 27bd 3b69 833c 739e 56bb 9e60 a2bc
000001a0: b7a7 dabc a41d 493c e498 393c b2a5 13bd
000001b0: e8fa 283a 0668 68bc 3dc5 06bd 3e1f 183d
000001c0: eac8 1a3d c1f3 ae3c 382f ddbc 7136 903c
000001d0: 1fe0 8eba d71a aebc 7592 0ebd 6512 0dbd
000001e0: 9897 74bc e5ea f7bc 505b d1bc c3c2 e73c
000001f0: cfbb 223d 87c8 293d c27b 47bc bed8 c63c
00000200: fc62 fd3c fffe 283c c9a0 003d d577 08bd
00000210: 750c 29bd 9c9b 3f3c cb94 8f3c 78e6 023d
00000220: 1d24 22bd 3ab4 13bd fff4 bdbb 0ec7 baba
00000230: 0730 28bc e001 f2bc 4a9f 39bc bbd7 a83c
00000240: 23bb 573c b802 90bb 8504 133c 59ad d1ba
00000250: 182c 14bd 3284 e2bc ff6e 64bc 3d23 07bd
00000260: 1ed7 09bc 5492 b5bc f8d7 f4bc 8c77 00bd
00000270: 7a03 1abd c9d4 1f3d 48d0 29bc cd42 13bd
00000280: ad20 d2bc e796 923c a377 693c 5418 f3bc
00000290: 85ab c3bc d11c be3c 3947 093d 5dd1 5fbc
000002a0: 9f46 5fbc abac 843b 26b4 1ebc cee7 923c
000002b0: 8379 cfbc cdd7 083d ca0f ea3c 5532 dbbc
000002c0: 1fdf e9ba 0629 e6bb e2ca b8bc 99b6 55bc
000002d0: 0356 1abd 070b 16bd 5073 98bc 4693 123d
000002e0: b506 fcbc ae32 913c d6c4 70bc e0a8 943a
000002f0: e2ac cf3c ac6f 15bd 2055 eb3c e02f 03bd
00000300: 5822 d1bc 0039 1dbc b716 2a3d 8482 743c
00000310: d19d 713c f296 ea3c 6ba1 233d 40c9 bcbc
00000320: 000a 45ba 9cd1 01bc 20f4 ebbc b261 e23c
00000330: 08e4 a33c ea9e 05bd c8bf 9abb 8bd3 d2bc
00000340: 30ad 643b acc8 2a3c 852d 2a3d 1037 5dbc
00000350: 009e 1eba 1cc4 34bc 905e 0f3c fc03 5c3c
00000360: 5c40 3c3c 6d6a d8bb 3022 803c cc44 06bc
00000370: edd2 203d 78e3 f9bc 6018 c0bb 3196 c93b
00000380: fec1 b63b cc10 3c3c c06d 13bc f1b2 263d
00000390: 06ce 65bc b7a6 18bd 2754 e7bc 0b98 f6bc
000003a0: 7459 bbbb 3a59 d63c cd2d 053d 2170 14bd
000003b0: 92ee a2bc 68e5 0cbd 563e bfbc 90e5 8f3c
000003c0: 5ab6 ee3c ce28 85bc 9bdc e63a 564d 0cbd
000003d0: 02f6 c7bc edb7 c0bc c828 b1bb f0d1 ad3c
000003e0: dc79 13bd 5d1f 253d ac13 07bc 7ac1 0dbd
000003f0: 8dbb 5abc f087 08bc 7c7e abbc e2cf f63c

bias f4 [120]
0.037249256 -0.03030767 -0.022834482 -0.012210865 0.0073042796 0.008001341 0.0134604955 0.023875186
-0.01621246 -0.004502655 -0.00029777936 0.0007961411 -0.011571263 -0.0071326853 -0.025826914 -0.028277658
-0.01669399 -0.015977588 0.022052584 -0.041481882 -0.036468357 -0.022610068 0.0027591402 -0.027658612
0.017291779 0.02878996 0.00043612262 0.024204332 0.03200553 0.035817415 0.005021544 0.036216836
-0.031373084 -0.036602106 -0.0012981984 -0.022967502 -0.03216935 0.011845648 0.0063186595 0.01967245
0.03908685 0.018824345 0.02572151 -0.020924365 -0.009739784 -0.038923305 -0.02397924 0.035547055
0.022911247 0.039503057 -0.039015085 0.025792148 -0.012648727 0.030560728 -0.020427557 -0.00428999
0.01960216 0.0003865183 -0.008819371 0.01128713 0.0365465 0.03267676 0.034667563 -0.0038613605
-0.008888069 -0.031392805 0.026586259 0.042702444 0.007866451 0.048178785 0.0036823358 0.023932042
0.033283092 -0.051819712 -0.013255466 0.010781052 -0.01191558 0.0021303245 0.036048025 -0.025795849
-0.018522846 -0.0062371213 0.032392006 -0.04689999 0.01660808 -0.008649738 -0.017335122 -0.028800584
-0.040602516 0.04158004 -0.029785875 -0.030174704 -0.03346137 0.009861838 0.020884417 0.026544925
0.012950527 0.033271473 -0.03992789 0.024935238 0.032257136 0.039575476 0.0020186803 -0.0114997635
0.018177845 0.039322276 -0.017433492 -0.017032148 0.033758733 0.033999503 0.02212661 0.05203749
-0.026972748 0.021767635 0.047028918 0.0372561 0.019088881 0.0061002453 0.029114895 0.0010502689
00000000: ad92 183d ca47 f8bc 610f bbbc 1410 48bc
00000010: bd58 ef3b 0e18 033c 6989 5c3c e595 c33c
00000020: fecf 84bc 028b 93bb 451f 9cb9 20b4 503a
00000030: 6595 3dbc 4db9 e9bb f792 d3bc 8ca6 e7bc
00000040: d6c1 88bc 6ee3 82bc 9fa7 b43c e8e8 29bd
00000050: d85f 15bd c038 b9bc b1d2 343b 5094 e2bc
00000060: 7da7 8d3c ecd8 eb3c 63a7 e439 2a48 c63c
00000070: 3b18 033d 48b5 123d c48b a43b 1b58 143d
00000080: 1081 00bd 17ec 15bd 4f28 aaba 5826 bcbc
00000090: 02c4 03bd 4014 423c c20c cf3b 1e28 a13c
000000a0: 8819 203d 8335 9a3c ebb5 d23c 9369 abbc
000000b0: 9d93 1fbc 0b6e 1fbd 1c70 c4bc ca99 113d
000000c0: 5eb0 bb3c f5cd 213d 48ce 1fbd 0e4a d33c
000000d0: 9b3c 4fbc 7e5a fa3c b157 a7bc 0b93 8cbb
000000e0: b694 a03c 9ca5 ca39 207f 10bc a8ed 383c
000000f0: c8b1 153d 11d8 053d 93ff 0d3d e10e 7dbb
00000100: 439f 11bc be95 00bd 6dcb d93c c2e8 2e3d
00000110: 49e2 003c 1e57 453d 5853 713b 210d c43c
00000120: da53 083d e840 54bd 742d 59bc 02a3 303c
00000130: 9139 43bc ea9c 0b3b 18a7 133d d151 d3bc
00000140: 39bd 97bc c460 ccbb 7bad 043d 341a 40bd
00000150: ab0d 883c a1b7 0dbc 6302 8ebc 34ef ebbc
00000160: d34e 26bd d54f 2a3d 8201 f4bc f130 f7bc
00000170: ca0e 09bd 8c93 213c cc15 ab3c be74 d93c
00000180: 722e 543c ab47 083d 6d8b 23bd fc44 cc3c
00000190: 0f20 043d e519 223d d64b 043b 8169 3cbc
000001a0: b4e9 943c 6510 213d afd0 8ebc 0187 8bbc
000001b0: 9946 0a3d 1043 0b3d dd42 b53c 4325 553d
000001c0: f4f5 dcbc 0a52 b23c 65a1 403d da99 183d
000001d0: 4960 9c3c 91e4 c73b 5c82 ee3c 2da9 893a

weight f4 [84, 120]
0.0043773036 -0.019988189 -0.06503648 0.0997048 0.13932404 -0.01222116 0.013736984 -0.06023983
-0.009769976 -0.02147724 -0.03129272 -0.0011122957 -0.038811795 -0.07674249 0.033931002 -0.016002897
0.020960197 0.07600894 0.07204824 -0.07998471 0.066490404 -0.06968067 -0.05503908 0.069381416
0.052292764 -0.032440912 -0.07283073 0.07967221 -0.04119185 0.051223215 0.034638416 -0.051635735
-0.02565257 0.03980018 -0.07330638 0.07051522 0.031465296 0.04291901 -0.04199911 -0.04613067
-0.029362699 -0.06274354 0.09436052 -0.028953597 -0.053642314 0.012461343 -0.055229608 -0.05439516
0.011850502 -0.0017555227 0.056888063 -0.097977325 0.016384065 0.069525324 -0.09442449 -0.046635836
-0.087512754 -0.018157955 0.004411644 -0.009497815 0.109759495 0.022884656 0.0069278125 -0.030834762
0.046662435 0.023889316 0.04018478 -0.0034671095 0.07379589 0.065072015 -0.021109043 -0.051285923
-0.057391617 -0.015042468 0.006127071 -0.00086008327 0.01000828 0.007223184 0.024925618 0.035372384
0.05206327 0.06271311 -0.08289929 0.04580404 -0.024903122 0.12234836 0.072599486 -0.012339916
0.03452959 0.015481837 0.057776637 0.04385432 0.045710154 -0.074973784 -0.011360095 0.013136308
0.027357258 -0.07564972 0.04148652 0.027757742 0.03684981 -0.08207001 -0.030091615 -0.0071341246
-0.029329319 0.059784386 -0.041901093 -0.066857725 -0.00011293079 0.02680924 0.050459035 0.046559118
0.007916286 -0.031399373 0.09350362 -0.033669554 0.027330864 0.0647969 0.07509118 -0.088698335
0.057865165 0.08487765 -0.10366175 0.04940405 0.09472181 0.09491569 0.09722301 -0.0002294835
-0.0051490837 -0.053294864 0.026882676 -0.09061565 0.04592781 0.023847967 0.06006592 0.05633413
-0.07074336 0.07066678 0.07888131 0.07024472 0.058881395 0.03133832 0.0121275475 0.124582805
0.014988634 -0.0018764501 0.018271586 0.08192876 0.004914117 0.09261016 -0.040161025 -0.07173636
-0.09447953 -0.024054963 0.016108893 0.09330132 0.076261394 -0.025605202 0.032421596 0.112778574
-0.03876489 0.023037864 -0.11133047 0.073900536 -0.0006448244 -0.086655885 -0.05915343 -0.0633128
0.007923661 0.022777803 0.047213793 0.027844666 0.03566098 -0.15650445 -0.0019711817 -0.00795337
-0.012273574 0.0017896184 0.043100525 0.0241291 0.052729905 -0.008936201 0.05426536 0.04583199
0.08857408 0.0005803361 -0.068353854 0.0018002744 0.024401758 0.055674292 -0.057651386 0.039417602
-0.02659674 0.027387666 -0.058596395 -0.10732829 -0.026608737 -0.021797037 0.036417477 -0.032016966
-0.085769154 0.08509828 0.09326955 0.033602938 0.0060132206 -0.059582744 0.038824152 -0.044391926
-0.0124772955 0.024438404 0.01155188 0.0098146135 0.0399988 -0.044172376 0.0055081034 0.05261227
0.059287533 0.004994886 0.027572816 -0.0074948776 -0.02468592 0.06823477 -0.13016436 0.068995826
0.052072972 -0.042320568 -0.029078621 -0.0075362567 -0.04052779 -0.128691 0.06807357 -0.116559304
-0.004980909 -0.07494196 -0.04406419 0.031511493 -0.04421715 -0.108162254 0.05866064 0.05937735
0.0021656377 -0.06948608 0.06974175 -0.07506717 0.10644878 0.062631674 -0.017224476 0.051647946
0.035748325 0.008497617 -0.10845956 0.0031279654 -0.023019442 -0.064292386 0.08931137 -0.077033915
00000000: 7c6f 8f3b 45be a3bc d931 85bd 0832 cc3d
00000010: f6aa 0e3e 433b 48bc 1611 613c 0abe 76bd
00000020: 4012 20bc 09f1 afbc cc2c 00bd 73ca 91ba
00000030: 1ef9 1ebd 2b2b 9dbd 3cfb 0a3d 8218 83bc
00000040: b8b4 ab3c 93aa 9b3d 078e 933d 06cf a3bd
00000050: 1f2c 883d bdb4 8ebd a970 61bd d817 8e3d
00000060: f030 563d c3e0 04bd 4728 95bd 2f2b a33d
00000070: c9b8 28bd 6fcf 513d 03e1 0d3d fe7f 53bd
00000080: 5725 d2bc 8305 233d a821 96bd 496a 903d
00000090: c1e1 003d d8cb 2f3d 4207 2cbd 83f3 3cbd
000000a0: 0b8a f0bc af7f 80bd 1740 c13d 1830 edbc
000000b0: 0bb8 5bbd a92a 4c3c 7138 62bd 76cd 5ebd
000000c0: 9c28 423c 9119 e6ba 7503 693d 56a8 c8bd
000000d0: e037 863c 4b63 8e3d a161 c1bd 3805 3fbd
000000e0: e339 b3bd febf 94bc 8d8f 903b b99c 1bbc
000000f0: 96c9 e03d 9a78 bb3c b402 e33b 2f99 fcbc
00000100: 1c21 3f3d 87b3 c33c cc98 243d 7238 63bb
00000110: 4d22 973d 7a44 853d dfec acbc 3011 52bd
00000120: 7913 6bbd af74 76bc 99c5 c83b 3677 61ba
00000130: c5f9 233c 76b0 ec3b cf30 cc3c a2e2 103d
00000140: 4c40 553d bb6f 803d 1ac7 a9bd 049d 3b3d
00000150: a201 ccbc c791 fa3d 0aaf 943d 5c2d 4abc
00000160: e66e 0d3d 88a7 7d3c 32a7 6c3d 96a0 333d
00000170: 923a 3b3d db8b 99bd b11f 3abc ab39 573c
00000180: 541c e03c 3eee 9abd c5ed 293d 3464 e33c
00000190: d4ef 163d 5214 a8bd b182 f6bc 60c5 e9bb
000001a0: 0a44 f0bc 79e0 743d 7ba0 2bbd b4ec 88bd
000001b0: 42d5 ecb8 0d9f db3c 22ae 4e3d c6b4 3e3d
000001c0: 4fb3 013c a19c 00bd d37e bf3d 16e9 09bd
000001d0: fae4 df3c 3db4 843d 68c9 993d 79a7 b5bd
000001e0: 0604 6d3d 55d4 ad3d 9d4c d4bd e75b 4a3d
000001f0: 82fd c13d 2863 c23d dc1c c73d 82a1 70b9
00000200: a5b9 a8bb b74b 5abd 0f39 dc3c b394 b9bd
00000210: cd1e 3c3d d05c c33c af07 763d 9ebe 663d
00000220: e5e1 90bd bfb9 903d 868c a13d 77dc 8f3d
00000230: 9e2d 713d 9c5c 003d 9fb2 463c 4525 ff3d
00000240: e392 753c 38f3 f5ba 4bae 953c 44ca a73d
00000250: 9a06 a13b 65aa bd3d e37f 24bd 83ea 92bd
00000260: 7c7e c1bd ea0e c5bc ccf6 833c c314 bf3d
00000270: ef2e 9c3d 00c2 d1bc 82cc 043d 74f8 e63d
00000280: efc7 1ebd e7b9 bc3c 3b01 e4bd 2a59 973d
00000290: 6f09 29ba a478 b1bd de4a 72bd 24aa 81bd
000002a0: 3ed2 013c 8498 ba3c 4063 413d 7f1a e43c
000002b0: 3f11 123d b442 20be f12e 01bb da4e 02bc
000002c0: 1a17 49bc a191 ea3a 2d8a 303d 64aa c53c
000002d0: 50fb 573d 2569 12bc 5b45 5e3d 53ba 3b3d
000002e0: 5466 b53d b221 183a 1bfd 8bbd 2ff7 eb3a
000002f0: 32e6 c73c ba0a 643d dc23 6cbd 5a74 213d
00000300: 68e1 d9bc 195c e03c c602 70bd efce dbbd
00000310: 91fa d9bc b38f b2bc 7e2a 153d 3924 03bd
00000320: bda7 afbd 0248 ae3d 1b04 bf3d 3ca3 093d
00000330: 8d0a c53b 090d 74bd 1306 1f3d 4fd4 35bd
00000340: 926d 4cbc 0c33 c83c 1944 3d3c 79cd 203c
00000350: c8d5 233d 18ee 34bd 527d b43b f77f 573d
00000360: 7cd7 723d 24ac a33b 63e0 e13c 9797 f5bb
00000370: 203a cabc acbe 8b3d ce49 05be af4d 8d3d
00000380: 784a 553d 5558 2dbd 4a36 eebc b4f2 f6bb
00000390: 7800 26bd 93c7 03be 286a 8b3d a5b6 eebd
000003a0: e536 a3bb 2c7b 99bd a77c 34bd 3212 013d
000003b0: 0b1d 35bd 2c84 ddbd 2446 703d aa35 733d
000003c0: 5fed 0d3b b84e 8ebd c3d4 8e3d d1bc 99bd
000003d0: d101 da3d 0945 803d 581a 8dbc cc8c 533d
000003e0: d66c 123d 9739 0b3c 0c20 debd 8dfe 4c3b
000003f0: 4593 bcbc baab 83bd e1e8 b63d f5c3 9dbd

bias f4 [84]
0.09962522 -0.041812688 0.06994599 -0.010682427 0.031988397 -0.04095512 -0.036480997 0.01177309
0.047623057 -0.04805449 -0.027558874 -0.019550845 -0.05172554 0.04727145 0.09297715 -0.028829424
0.0058672647 -0.010936662 0.025879428 0.024682853 -0.0794694 -0.06574186 0.01689608 -0.08162639
-0.02360766 -0.03247481 0.03578723 0.030977186 -0.05072047 0.042933177 0.02765823 0.02630033
0.0283506 0.074600294 -0.04267791 -0.06585977 -0.036474373 -0.061909664 0.093636885 0.12528545
-0.085500576 0.038024288 -0.031637847 -0.075153686 0.06739494 0.05318065 -0.027269393 0.10724575
0.057952553 0.06481998 -0.07250304 0.041475516 -0.09003722 0.005837465 0.0014376589 0.007489331
0.043613605 -0.004731658 -0.056057222 0.036373824 0.049125444 0.04391235 -0.00984032 -0.07702828
0.034238152 0.059013866 -0.010141271 -0.026724827 -0.026352616 0.004125463 0.08637354 -0.04427223
0.0692482 -0.009830435 0.04017311 0.020409377 0.014205393 -0.06342584 -0.016654061 -0.0670459
-0.03788105 0.080706745 0.013694437 0.07319179
00000000: 4f08 cc3d c843 2bbd d83f 8f3d 5905 2fbc
00000010: 4406 033d 8ec0 27bd 196d 15bd ebe3 403c
00000020: 6510 433d c9d4 44bd 26c3 e1bc 1829 a0bc
00000030: 29de 53bd b59f 413d ce6a be3d af2b ecbc
00000040: 2f42 c03b af2f 33bc 1801 d43c b233 ca3c
00000050: dac0 a2bd aba3 86bd a669 8a3c bd2b a7bd
00000060: da64 c1bc 4e04 05bd a195 123d dec3 fd3c
00000070: 44c0 4fbd b3da 2f3d 8393 e23c ca73 d73c
00000080: 843f e83c 0ac8 983d 08cf 2ebd 7de1 86bd
00000090: 2766 15bd fd94 7dbd b2c4 bf3d d44a 003e
000000a0: ed1a afbd 5bbf 1b3d b096 01bd 2dea 99bd
000000b0: 5c06 8a3d f4d3 593d 1064 dfbc a9a3 db3d
000000c0: a85f 6d3d 56c0 843d 797c 94bd 3be2 293d
000000d0: 6f65 b8bd 3548 bf3b d46f bc3a 1069 f53b
000000e0: 2ea4 323d 060c 9bbb 429c 65bd b8fc 143d
000000f0: c337 493d 70dd 333d 4b39 21bc 01c1 9dbd
00000100: 4e3d 0c3d 86b8 713d 9327 26bc 06ee dabc
00000110: 71e1 d7bc e42e 873b 9ce4 b03d cc56 35bd
00000120: 00d2 8d3d d50f 21bc 8f8c 243d 9131 a73c
00000130: bdbd 683c 68e5 81bd 196e 88bc 5c4f 89bd
00000140: 2929 1bbd 9449 a53d a25e 603c 94e5 953d

weight f4 [10, 84]
0.02772388 -0.043669656 0.12460023 -0.031087095 -0.101258 0.15200831 0.09613978 -0.105749875
-0.064333595 0.122884735 -0.16455911 0.052075107 0.24595888 0.136319 0.0051369085 9.318615e-05
-0.027567508 -0.002001962 0.15519805 -0.010868633 0.13661149 -0.08169868 -0.055150926 0.07222521
-0.015470052 -0.060400918 -0.06803887 -0.074587375 0.07985091 0.012357418 0.18109919 0.26344097
-0.11415721 -0.20611571 0.10330383 -0.095226415 -0.1166018 -0.04790675 -0.0694042 -0.1899577
0.01964344 0.096078835 0.04120088 0.019574372 -0.016618002 0.030540232 -0.0105554415 -0.09369553
-0.117875285 -0.28470838 -0.026448738 -0.21372366 0.045179315 0.10794074 -0.15866311 -0.062261872
-0.20747672 0.1292946 -0.034701016 0.07508035 0.006048863 0.16963324 -0.03340664 0.07507128
0.13700868 0.0049498477 -0.046830565 0.12195283 -0.07766811 -0.1463179 0.030647201 0.00011275609
0.06702888 0.07442582 0.09967775 -0.16164075 -0.007458312 -0.16224712 -0.012785188 -0.071715534
-0.044510826 -0.06119515 -0.008862495 0.09905812 0.049931843 -0.19635423 0.043027733 -0.023897763
-0.06743738 -0.15329935 0.084016114 -0.11323201 -0.09852228 -0.10231949 0.022494463 -0.13043793
-0.043835074 -0.13581449 0.21718265 -0.08394149 -0.12953468 0.1008718 -0.031136641 -0.14318086
0.06900841 -0.07968302 -0.09058621 0.09489927 -0.04508729 -0.019291032 -0.19253403 -0.107275985
0.03981378 -0.15489914 -0.01845347 -0.10860438 0.21271196 0.16129018 -0.0686828 0.084706165
0.12444476 0.092941515 0.092756 0.21912308 0.030798115 0.084445864 -0.020106487 -0.105394416
0.31853214 -0.06286082 0.022160623 -0.06353454 -0.0016253333 0.14686349 -0.019036287 0.18096949
-0.058444377 -0.21046488 -0.11057041 0.11201749 0.0563077 0.03638584 0.013318017 -0.09972569
0.039832428 0.0040139644 0.018927997 -0.15061998 0.19281892 0.19251798 -0.1409254 -0.09960995
-0.001922688 0.15379821 -0.08253679 0.022457013 0.085762314 -0.18187825 -0.09723393 0.15405844
-0.18137704 -0.14057189 -0.11843913 -0.044392087 0.008674975 0.124674976 -0.13023686 0.06230328
0.005254309 0.18851607 -0.15700267 -0.05433019 0.21093687 0.13481438 -0.18598785 -0.113592625
-0.19148572 0.11613529 -0.16283688 -0.12500262 0.11335526 -0.057402946 0.14422338 -0.022893481
-0.006184953 -0.017357191 -0.13078684 0.016109617 0.163256 -0.09976462 0.03748463 -0.081031054
-0.0076968763 -0.061903723 -0.23069571 0.10110684 0.110472925 -0.020058375 0.060895603 -0.11227882
0.10764384 0.07605887 0.09854036 0.15749963 -0.009996042 -0.10383388 -0.16728972 0.16324778
-0.04550058 0.09116594 0.09834563 -0.14158298 -0.107075855 0.24473336 0.022098536 0.017954102
-0.29512128 0.050121482 0.10861063 0.08178574 0.015923746 0.11316243 0.07313279 0.1738018
-0.10450864 0.14937718 0.076659866 0.09003618 0.090696715 -0.12829007 0.034192912 -0.04938547
0.23441613 -0.20499858 0.11084778 0.08893023 -0.09543682 0.062430978 0.11357149 0.066865735
-0.17795755 0.22849548 -0.08345775 0.089148395 0.15942086 0.01832206 0.075458504 0.03582392
-0.047341425 0.10141859 0.02311388 0.11169471 0.02902922 0.20153607 -0.18494555 -0.0026086597
00000000: 311d e33c f4de 32bd 682e ff3d 5daa febc
00000010: 5b60 cfbd 11a8 1b3e efe4 c43d 6493 d8bd
00000020: 55c1 83bd feaa fb3d 2f82 28be b54c 553d
00000030: a5dc 7b3e 3597 0b3e 8353 a83b ef6c c338
00000040: 41d5 e1bc 5933 03bb 3dec 1e3e 5a12 32bc
00000050: e2e3 0b3e a351 a7bd f0e5 61bd d0ea 933d
00000060: 1a76 7dbc f466 77bd f757 8bbd 44c1 98bd
00000070: e088 a33d c576 4a3c 1172 393e bce1 863e
00000080: 41cb e9bd ff0f 53be f590 d33d 1106 c3bd
00000090: edcc eebd de39 44bd ca23 8ebd 4584 42be
000000a0: 48eb a03c fbc4 c43d 41c2 283d 6f5a a03c
000000b0: 7a22 88bc 822f fa3c bbf0 2cbc 71e3 bfbd
000000c0: 9968 f1bd 4cc5 91be 06ab d8bc 60da 5abe
000000d0: f20d 393d 0910 dd3d 9578 22be 4e06 7fbd
000000e0: c774 54be ce65 043e a722 0ebd bac3 993d
000000f0: 8a35 c63b 56b4 2d3e 67d5 08bd f9be 993d
00000100: 014c 0c3e 5532 a23b 68d1 3fbd 68c2 f93d
00000110: 7510 9fbd 5cd4 15be d70f fb3c 7777 ec38
00000120: 7046 893d 906c 983d d923 cc3d 2785 25be
00000130: db64 f4bb 1c24 26be f778 51bc 98df 92bd
00000140: fc50 36bd c4a7 7abd 0034 11bc fcde ca3d
00000150: 5585 4c3d 1511 49be d93d 303d 3ec5 c3bc
00000160: 9c1c 8abd 81fa 1cbe a410 ac3d 2fe6 e7bd
00000170: 0dc6 c9bd e18c d1bd 4f46 b83c 8591 05be
00000180: 688c 33bd f412 0bbe 2165 5e3e 84e9 abbd
00000190: bda4 04be e095 ce3d 4512 ffbc 019e 12be
000001a0: 4854 8d3d da30 a3bd 4385 b9bd 8c5a c23d
000001b0: 73ad 38bd 3a08 9ebc a427 45be 83b3 dbbd
000001c0: c613 233d e19d 1ebe bb2b 97bc f96b debd
000001d0: 2ad1 593e 4129 253e 91a9 8cbd 6d7a ad3d
000001e0: e5dc fe3d 1f58 be3d dcf6 bd3d cd61 603e
000001f0: 544c fc3c f4f1 ac3d 5cb6 a4bc 07d9 d7bd
00000200: a516 a33e 2cbd 80bd 328a b53c 661e 82bd
00000210: 2309 d5ba 6263 163e fdf1 9bbc 1150 393e
00000220: 5f63 6fbd 1b84 57be bd72 e2bd 6d69 e53d
00000230: e7a2 663d 5209 153d d033 5a3c fc3c ccbd
00000240: 5427 233d 9387 833b e30e 9b3c 203c 1abe
00000250: 5372 453e 6f23 453e c04e 10be 4d00 ccbd
00000260: b402 fcba 477d 1d3e 0c09 a9bd c5f7 b73c
00000270: 27a4 af3d 4b3e 3abe 9522 c7bd 7fc1 1d3e
00000280: e7ba 39be 14f2 0fbe 3790 f2bd 7ad4 35bd
00000290: 7b21 0e3c 9855 ff3d d05c 05be b931 7f3d
000002a0: 572c ac3b 5b0a 413e 4fc5 20be 5589 5ebd
000002b0: d6ff 573e c80c 0a3e 9973 3ebe 40a3 e8bd
000002c0: d514 44be 57d8 ed3d b6be 26be b000 00be
000002d0: cd26 e83d 5a1f 6bbd 4baf 133e 1c8b bbbc
000002e0: 25ab cabb ab30 8ebc fcec 05be 51f8 833c
000002f0: 952c 273e 6551 ccbd 7c89 193d 9cf3 a5bd
00000300: 1436 fcbb c28e 7dbd 7f3b 6cbe 1a11 cf3d
00000310: a13f e23d 7651 a4bc ab6d 793d 70f2 e5bd
00000320: 6074 dc3d c1c4 9b3d 87cf c93d 9547 213e
00000330: 70c6 23bc dba6 d4bd ff4d 2bbe 6d2a 273e
00000340: d15e 3abd 35b5 ba3d 6f69 c93d 21fb 10be
00000350: 964a dbbd 629b 7a3e fd07 b53c 7b14 933c
00000360: 231a 97be 2f4c 4d3d 406f de3d 487f a73d
00000370: 8472 823c b4c1 e73d a5c6 953d 19f9 313e
00000380: a008 d6bd 55f6 183e d9ff 9c3d e464 b83d
00000390: 33bf b93d 795e 03be de0d 0c3d 6b48 4abd
000003a0: c80a 703e 26eb 51be 2904 e33d 0d21 b63d
000003b0: 6174 c3bd a0b7 7f3d 2b98 e83d e7f0 883d
000003c0: 813a 36be b8fa 693e e6eb aabd 6f93 b63d
000003d0: 393f 233e 2518 963c fd89 9a3d 1abc 123d
000003e0: 15e9 41bd 8db4 cf3d 5259 bd3c 32c0 e43d
000003f0: b0ce ed3c 795f 4e3e 5e62 3dbe 0cf6 2abb

bias f4 [10]
-0.013647407 0.07158733 -0.12214639 -0.060015276 -0.022358658 0.06616456 -0.00091282366 -0.0541622
0.03559752 -0.03965175
00000000: 6099 5fbc 619c 923d e327 fabd 94d2 75bd
00000010: 8129 b7bc 4981 873d 8f4a 6fba 2fd9 5dbd
00000020: b5ce 113d e069 22bd
